models/Assignment 1 - best.pt (torch, 813223 bytes, 17 tensors)

weight f4 [944, 8]
-3.017308 0.5992086 0.30625555 3.5505552 2.9748447 1.0267894 -1.3772308 -1.3616426
1.9985954 -2.2494144 0.40873367 -3.2179832 -0.05398687 -1.4949988 1.9826095 -2.916497
0.130536 -1.2788734 1.3967271 3.8540502 5.6679673 -2.061555 -3.4768472 3.2166858
-3.7210233 3.089431 -1.2742605 0.43863747 1.5234512 4.122318 -2.3502734 -1.4614128
0.09912479 -0.8654174 3.8053467 1.2263688 0.8095683 -5.1317544 -3.3543584 -0.73085475
2.2254746 2.8741112 2.8337996 2.5318797 -0.56493425 -1.6535946 2.1518602 -1.1774966
0.8398371 -1.3651582 -3.7298617 0.4332617 -0.6053427 1.3708923 -0.38530472 1.4720261
1.8080976 -2.9063163 1.6269449 0.020434812 -0.8417622 -1.8536392 2.953226 -1.3501724
-1.6325585 0.067088336 0.35037437 0.57976913 -0.842453 1.6355298 0.5205629 1.2464933
-0.6427784 -0.5031936 0.6967744 1.227185 -0.57940066 -0.36117533 1.6888561 -0.5190971
-1.338685 0.9326714 -0.046305947 0.021690877 -1.9682957 2.868362 0.8749441 1.2668022
0.84534234 2.3088796 -1.891547 2.0131016 0.38776535 1.5592194 -1.7028899 -0.54118764
2.1954288 2.397888 -0.2695488 -0.6020248 -1.2489337 -1.2189906 2.2225425 2.0577755
0.54455334 0.5143953 -1.0099826 1.8497405 1.3496791 -0.5264405 -0.8111209 -0.27871183
1.1829722 0.63299775 1.7292031 -3.0299232 -0.12845924 2.9058478 2.2756395 -2.5621579
0.18261623 -1.1530008 -1.9483482 0.76395196 -0.7116244 -0.12980956 -1.2980195 -2.1729717
-0.05813478 -0.8136141 0.666032 -1.8703015 -1.9187678 4.9903975 0.04188414 1.057553
-0.49614173 0.95574474 2.4039333 0.6614965 -0.17342062 1.748214 0.9180442 -0.07061354
-0.480485 -0.6839194 -1.5738065 -0.71654004 -0.102054 0.3650559 -0.4791574 -1.2101287
2.7203057 0.70905703 -0.9617791 -1.1877934 3.759483 -1.4028962 3.562564 0.78023547
1.3004917 2.1924639 0.55456793 -1.8146619 -0.8873558 2.1948318 1.2809974 0.000486647
0.48386252 -1.62233 1.7203397 0.21245544 -1.4023798 0.27240255 2.6561353 1.0905348
-2.6514616 1.9730793 1.1104224 5.023018 -1.4581475 1.2487545 -1.727565 -0.71035784
0.4907545 -1.205841 -1.0183702 0.1381762 -0.3507364 -2.339884 1.4823687 -0.4805023
-0.10990146 -0.34353042 1.6216159 0.74074566 -1.2136458 -0.5008787 2.1078084 1.817662
0.9107887 5.562769 1.982541 -2.06051 -0.45725086 -3.5054884 -2.040676 0.6563751
1.9489284 -1.7424806 0.5670688 1.2502384 -0.05099289 -4.1980677 -3.15189 2.3426743
0.31520578 0.2009545 0.1427802 2.2528844 1.4698888 0.61648315 2.1692011 -0.60941106
-0.0012030124 -1.1956183 -1.4801164 1.6272165 0.7066072 0.7603201 -1.6592731 1.4688351
-6.555829 0.45961428 -1.1626998 -2.9399092 0.9568931 0.049577534 1.9592936 2.5542016
0.6001372 1.9133042 -1.6326838 -0.1871424 -0.45593533 0.7316449 -1.1247342 -0.8463339
2.094321 0.6025898 1.2333521 -0.9919944 0.09298188 -0.78119946 3.7189183 -2.0914855
00000000: 931b 41c0 bc65 193f 87cd 9c3e 4c3c 6340
00000010: db63 3e40 d66d 833f 1949 b0bf 4e4a aebf
00000020: f9d1 ff3f 68f6 0fc0 8a45 d13e 70f3 4dc0
00000030: 5621 5dbd 1f5c bfbf 26c6 fd3f e3a7 3ac0
00000040: 3bab 053e 20b2 a3bf f4c7 b23f c2a8 7640
00000050: fd5f b540 84f0 03c0 aa84 5ec0 2ede 4d40
00000060: 3f25 6ec0 3db9 4540 f81a a3bf 1795 e03e
00000070: 7300 c33f 07ea 8340 e16a 16c0 930f bbbf
00000080: f001 cb3d ff8b 5dbf cd8a 7340 a7f9 9c3f
00000090: de3f 4f3f 5537 a4c0 cfad 56c0 4c19 3bbf
000000a0: 2d6e 0e40 70f1 3740 f95c 3540 510a 2240
000000b0: 889f 10bf fda8 d3bf 14b8 0940 35b8 96bf
000000c0: 90ff 563f 81bd aebf 0eb6 6ec0 7ad4 dd3e
000000d0: bdf7 1abf 6679 af3f a946 c5be 5a6b bc3f
000000e0: be6f e73f 1601 3ac0 bb3f d03f e866 a73c
000000f0: ba7d 57bf 0d44 edbf a801 3d40 73d2 acbf
00000100: adf7 d0bf 9c65 893d 4564 b33e c06b 143f
00000110: 00ab 57bf 0a59 d13f 9c43 053f 188d 9f3f
00000120: 208d 24bf 4cd1 00bf cf5f 323f 6614 9d3f
00000130: 9a53 14bf f9eb b8be 702c d83f 8ce3 04bf
00000140: 085a abbf 8ec3 6e3f 4eab 3dbd 11b1 b13c
00000150: 1df1 fbbf 3e93 3740 56fc 5f3f 9326 a23f
00000160: 5b68 583f afc4 1340 361e f2bf a8d6 0040
00000170: 2e89 c63e 8094 c73f 4cf8 d9bf 468b 0abf
00000180: e881 0c40 ff76 1940 4d02 8abe 4c1e 1abf
00000190: 0fdd 9fbf e207 9cbf 233e 0e40 98b2 0340
000001a0: d967 0b3f 69af 033f 1c47 81bf 4cc4 ec3f
000001b0: 49c2 ac3f cec4 06bf 9fa5 4fbf 51b3 8ebe
000001c0: a26b 973f 240c 223f 8756 dd3f 43ea 41c0
000001d0: d28a 03be 69f9 3940 14a4 1140 65fa 23c0
000001e0: c0ff 3a3e 8895 93bf 7963 f9bf 5b92 433f
000001f0: 042d 36bf ccec 04be 8125 a6bf f811 0bc0
00000200: bc1e 6ebd 0349 50bf 1381 2a3f 0a66 efbf
00000210: 2f9a f5bf 56b1 9f40 b48e 2b3d e65d 873f
00000220: 4a06 febe b0ab 743f 0bda 1940 d657 293f
00000230: 2d95 31be 7ac5 df3f f204 6b3f d59d 90bd
00000240: 2102 f6be 5815 2fbf 7e72 c9bf 2b6f 37bf
00000250: b001 d1bd 9be8 ba3e 1e54 f5be 7fe5 9abf
00000260: 7d19 2e40 c384 353f 2837 76bf 9d09 98bf
00000270: 5f9b 7040 1a92 b3bf 0c01 6440 83bd 473f
00000280: 8376 a63f 5451 0c40 2af8 0d3f d746 e8bf
00000290: c029 63bf 2078 0c40 b9f7 a33f a824 ff39
000002a0: d4bc f73e 82a8 cfbf 1734 dc3f eb8d 593e
000002b0: 2e81 b3bf 5978 8b3e 1ffe 2940 a596 8b3f
000002c0: 8cb1 29c0 dd8d fc3f 5222 8e3f 90bc a040
000002d0: 94a4 babf 30d7 9f3f da20 ddbf 03da 35bf
000002e0: 2c44 fb3e ff58 9abf f459 82bf 107e 0d3e
000002f0: b993 b3be a9c0 15c0 42be bd3f 6604 f6be
00000300: 0414 e1bd 38e3 afbe 1c91 cf3f 82a1 3d3f
00000310: bf58 9bbf 9639 00bf 55e6 0640 26a9 e83f
00000320: 7329 693f 3402 b240 e7c3 fd3f 65df 03c0
00000330: c91c eabe ec59 60c0 709a 02c0 3308 283f
00000340: 7c76 f93f 9b09 dfbf 6c2b 113f d007 a03f
00000350: ecdd 50bd 9256 86c0 91b8 49c0 60ee 1540
00000360: a762 a13e 04c7 4d3e f934 123e 422f 1040
00000370: 5125 bc3f d7d1 1d3f 31d4 0a40 5d02 1cbf
00000380: 66ae 9dba 050a 99bf 7474 bdbf a148 d03f
00000390: 36e4 343f 57a4 423f 1063 d4bf ca02 bc3f
000003a0: 5ac9 d1c0 9052 eb3e 59d3 94bf 7927 3cc0
000003b0: f2f6 743f d011 4b3d 22ca fa3f 0a78 2340
000003c0: 97a2 193f 27e7 f43f c8fb d0bf 42a2 3fbe
000003d0: 5b70 e9be 154d 3b3f 4af7 8fbf 57a9 58bf
000003e0: 5b09 0640 5343 1a3f 7bde 9d3f 58f3 7dbf
000003f0: 496d be3d b0fc 47bf c202 6e40 e6da 05c0

weight f4 [1683, 8]
2.430732 0.5390327 1.7046214 0.64364004 0.41384605 1.4102137 -2.1500275 0.28322893
-0.017882258 3.572922 0.20429297 -0.11013724 -1.6822253 -1.02495 1.4913938 -1.8693091
-1.2044436 -1.3323536 -3.1278923 -0.59236383 1.0383164 0.81725055 1.7512459 1.2264694
-1.651633 0.40638402 -0.10260531 2.6578481 -0.48802048 -3.2223206 0.68820995 -2.2618394
3.059132 2.9714236 -1.7592165 1.56566 -3.1539187 1.1642972 5.1204295 0.10382585
0.82622755 0.68733394 1.2600155 -0.7214186 -1.1778487 0.14737886 0.26584443 2.286737
-0.2588226 1.5311543 -0.44329107 -0.08656511 -0.011867839 1.3420429 -0.46770582 3.0921762
-1.4034737 -2.9372249 -3.0528224 -0.16613282 0.39473772 2.132965 -3.7728004 0.9568889
1.0475768 -2.3430758 0.20489447 1.0858959 0.38929453 -2.8230467 2.1054842 -0.9442857
0.113544166 0.04355785 -1.3492138 -0.16429263 -1.4060478 -4.430566 -3.595653 -0.84398067
0.7098058 -0.446973 -0.18592986 -2.8099496 1.1128585 1.0399498 0.6753413 -0.16382876
1.3433522 -1.0722183 -0.017343229 -1.2945548 -0.31753546 -0.69766766 -0.009794471 -2.5782967
-1.4892063 -0.36920604 -0.726171 -2.0015967 1.0013652 -0.05252248 -0.044417948 3.666956
0.55366755 -0.8693064 1.4636732 -1.2090305 1.4546399 -0.9892945 -0.113275334 -0.7772279
0.5327156 -0.047099166 -0.30426508 0.515211 1.0339872 -0.06525092 1.1387916 0.37825966
0.31223932 1.0472703 -3.4201593 0.28506613 1.441869 0.31194103 0.8634751 -3.377948
1.0026627 -1.1304915 0.86159694 0.9299091 -0.5138794 -3.179288 -0.8214412 -1.8856877
-0.0400569 -1.5064039 -2.9061787 -2.2855985 3.086814 -1.563848 0.5542017 -0.46496466
-2.7929292 3.8578477 -1.2607492 4.255047 0.86212033 -3.9533248 -3.160198 -1.912409
3.2438898 -1.4972708 -0.75158423 2.4083767 0.5246976 1.3566502 -1.9116386 0.9991082
-1.494103 -1.4500227 -0.6841914 -1.1067443 -1.3416449 1.2743765 -2.4388049 -2.0688221
-2.5940983 0.047260072 -0.16302375 -2.019104 -0.617707 1.1152679 -1.9677305 -1.3185132
-0.37955013 -1.4043113 1.3316212 -0.47138757 0.36399657 -0.30143836 2.1262693 0.099673554
0.22639212 -2.2657728 0.59643567 -0.67902595 0.94700146 1.0470114 -0.8652671 0.14318019
-1.9134898 -1.8570234 -0.06662752 -2.0233374 0.8493173 0.08020967 -0.37295568 1.249342
1.0269077 -1.1888548 0.41906348 0.63255644 1.7619864 1.0009439 -0.17859589 0.4595243
-0.6642567 -1.4743041 0.2745144 -0.7805691 -1.3772835 2.249413 -0.6328181 -0.73740035
-2.4896512 -1.0796775 -1.3407317 -0.21856248 -1.2457823 2.1281698 -1.971375 0.6368096
-3.6425812 -2.0676408 1.8524002 0.41943416 0.39433682 -2.5292873 -3.1091816 1.0608612
0.41825372 1.164557 2.5339696 1.4039922 -0.3898099 1.9725976 -0.3215029 0.9617673
2.9950466 1.8404276 0.5870913 -0.8145603 -2.3561077 -1.7414452 0.97338694 0.33448976
-2.4188783 2.5476947 1.3974068 2.7279615 -0.22597422 -0.11168516 -0.7035257 0.4164337
00000000: 1d91 1b40 0cfe 093f 0931 da3f 98c5 243f
00000010: a1e3 d33e e281 b43f 0d9a 09c0 6203 913e
00000020: d07d 92bc c1aa 6440 2d32 513e a28f e1bd
00000030: 2953 d7bf 9031 83bf fee5 be3f 8545 efbf
00000040: 352b 9abf 908a aabf 632f 48c0 28a5 17bf
00000050: 8de7 843f 5537 513f d328 e03f f3fc 9c3f
00000060: b668 d3bf 9111 d03e bc22 d2bd 2f1a 2a40
00000070: d2dd f9be 803a 4ec0 872e 303f fac1 10c0
00000080: d2c8 4340 ce2b 3e40 022e e1bf 8c67 c83f
00000090: ced9 49c0 b107 953f 8fda a340 a6a2 d43d
000000a0: a683 533f 1ef5 2f3f 3048 a13f e4ae 38bf
000000b0: bfc3 96bf 7cea 163e c31c 883e e659 1240
000000c0: 6584 84be ddfc c33f 0cf7 e2be 0c49 b1bd
000000d0: 5371 42bc 10c8 ab3f 2377 efbe 37e6 4540
000000e0: 07a5 b3bf 7efb 3bc0 7161 43c0 b91e 2abe
000000f0: 101b ca3e 8082 0840 9075 71c0 acf6 743f
00000100: ff16 863f f4f4 15c0 dbcf 513e a3fe 8a3f
00000110: 9d51 c73e ccac 34c0 41c0 0640 b5bc 71bf
00000120: d889 e83d b769 323d 0ab3 acbf 543c 28be
00000130: 60f9 b3bf 32c7 8dc0 2e1f 66c0 1e0f 58bf
00000140: d5b5 353f a5d9 e4be 6664 3ebe 37d6 33c0
00000150: 2672 8e3f 131d 853f 2be3 2c3f bac2 27be
00000160: f7f2 ab3f 733e 89bf 6313 8ebc f9b3 a5bf
00000170: 0294 a2be 599a 32bf fd78 20bc d002 25c0
00000180: 509e bebf 9308 bdbe 58e6 39bf 291a 00c0
00000190: bc2c 803f d021 57bd 98ef 35bd 68af 6a40
000001a0: 28bd 0d3f dd8a 5ebf a559 bb3f 83c1 9abf
000001b0: a431 ba3f 6842 7dbf e6fc e7bd 68f8 46bf
000001c0: 0d60 083f 0eeb 40bd a2c8 9bbe dee4 033f
000001d0: b159 843f 46a2 85bd ecc3 913f 40ab c13e
000001e0: d5dd 9f3e f40c 863f e4e3 5ac0 30f4 913e
000001f0: 2a8f b83f bcb6 9f3e b40c 5d3f 4d30 58c0
00000200: 4057 803f f2b3 90bf 9e91 5c3f 860e 6e3f
00000210: 9a8d 03bf 7479 4bc0 f849 52bf 375e f1bf
00000220: b412 24bd d8d1 c0bf d5fe 39c0 3f47 12c0
00000230: 5c8e 4540 2c2c c8bf 2ae0 0d3f d90f eebe
00000240: 5abf 32c0 fae6 7640 3b60 a1bf 5829 8840
00000250: ebb3 5c3f 4603 7dc0 af40 4ac0 d1c9 f4bf
00000260: e49b 4f40 92a6 bfbf d367 40bf d822 1a40
00000270: 9552 063f b7a6 ad3f 93b0 f4bf 8ec5 7f3f
00000280: c43e bfbf 589a b9bf 2b27 2fbf cca9 8dbf
00000290: 05bb abbf c51e a33f 6115 1cc0 9567 04c0
000002a0: b505 26c0 c793 413d b3ef 26be 0039 01c0
000002b0: 0c22 1ebf 19c1 8e3f 98de fbbf 0ac5 a8bf
000002c0: 6554 c2be 79c0 b3bf 9072 aa3f b659 f1be
000002d0: c25d ba3e 2156 9abe cc14 0840 a621 cc3d
000002e0: 56d3 673e 6c02 11c0 02b0 183f a5d4 2dbf
000002f0: b06e 723f 7804 863f 2582 5dbf d49d 123e
00000300: 3ced f4bf f1b2 edbf 0274 88bd 5c7e 01c0
00000310: dc6c 593f f844 a43d 0cf4 bebe 70ea 9f3f
00000320: b671 833f 652c 98bf 7d8f d63e 38ef 213f
00000330: c588 e13f ee1e 803f d7e1 36be c546 eb3e
00000340: ba0c 2abf ffb5 bcbf 278d 8c3e 60d3 47bf
00000350: d34a b0bf 62f6 0f40 5e00 22bf 45c6 3cbf
00000360: 7256 1fc0 df32 8abf 199d abbf d8ce 5fbe
00000370: cb75 9fbf ef33 0840 0456 fcbf f405 233f
00000380: 0d20 69c0 3a54 04c0 731b ed3f 13c0 d63e
00000390: 84e6 c93e d8df 21c0 d5fc 46c0 4dca 873f
000003a0: 5a25 d63e 3410 953f 8f2c 2240 04b6 b33f
000003b0: 2a95 c7be 147e fc3f 079c a4be 6236 763f
000003c0: d8ae 3f40 2293 eb3f 9e4b 163f 0687 50bf
000003d0: 78ca 16c0 ade7 debf e32f 793f 3e42 ab3e
000003e0: e7ce 1ac0 6e0d 2340 3ade b23f ec96 2e40
000003f0: c965 67be 30bb e4bd 431a 34bf cc36 d53e

weight f4 [8, 8]
-1.0035064 -1.251481 -0.84684277 -0.8624016 1.4035424 -1.049322 -1.4102194 1.0618652
-0.78195196 -0.8335556 -0.71654546 -0.91151017 0.8636913 -0.8996806 -0.8058572 1.0152612
-0.53094333 -0.22929212 -0.02283844 0.1880654 0.22914727 0.109425984 -0.22183071 -0.47301227
-0.30473277 -0.07379961 0.12747976 -0.006824103 -0.116272695 -0.052249804 0.015101593 -0.05087509
-0.38741326 -0.23519202 0.07886651 0.12719879 0.012150411 0.008933612 -0.16932948 -0.25427347
-0.36686772 -0.018744336 -0.090133816 0.028374316 -0.010464884 -0.038882572 0.084644824 -0.1351599
0.08328757 0.054834288 -0.119409665 -0.040171668 0.0037016098 -0.07164719 -0.07911924 0.09786686
1.003079 0.4541166 0.8788028 0.8307235 -0.69153005 0.7432281 0.53458613 -0.801301
00000000: e672 80bf 8830 a0bf b0ca 58bf 5ac6 5cbf
00000010: 47a7 b33f 2f50 86bf 1282 b4bf 33eb 873f
00000020: 012e 48bf e663 55bf 866f 37bf bb58 69bf
00000030: df1a 5d3f 7851 66bf a84c 4ebf 14f4 813f
00000040: e7eb 07bf 8ecb 6abe ae17 bbbc 3794 403e
00000050: 95a5 6a3e bb1a e03d 9727 63be aa2e f2be
00000060: ef05 9cbe 4024 97bd 0e8a 023e ba9c dfbb
00000070: 6120 eebd e403 56bd ac6c 773c 6662 50bd
00000080: 085b c6be 2dd6 70be c484 a13d 6640 023e
00000090: 8412 473c 495e 123c b564 2dbe 2230 82be
000000a0: 16d6 bbbe b98d 99bc 1498 b8bd 4171 e83c
000000b0: e874 2bbc 5543 1fbd 445a ad3d 5b67 0abe
000000c0: ac92 aa3d eb99 603d 0e8d f4bd 0c8b 24bd
000000d0: b596 723b c3bb 92bd 4509 a2bd 6c6e c83d
000000e0: e564 803f f981 e83e 38f9 603f 4caa 543f
000000f0: 1d08 31bf 3244 3e3f a3da 083f 1022 4dbf

bias f4 [8]
2.3086357 3.3481 -0.18685274 0.041894615 -0.1571547 -0.11533338 -0.27861103 -3.8615623
00000000: b0c0 1340 4547 5640 5356 3fbe b099 2b3d
00000010: 29ed 20be e833 ecbd 1ba6 8ebe d623 77c0

weight f4 [944, 64]
3.2640538 -1.1743711 -0.48360202 2.154832 3.0861115 -2.4565003 2.3307815 1.0881349
-0.94473064 -3.8065164 -0.6877176 2.1133268 1.9333608 -1.2468187 1.1814812 -0.5134332
1.3654445 -0.6569459 1.0811185 0.20922957 1.7823956 2.4607918 0.32575825 0.55726767
-1.0655154 0.33779034 0.030191453 4.5743012 3.1053739 -0.9181084 0.95704603 0.8612308
1.6637001 0.51819164 1.0892897 -1.6001996 0.32991558 -1.9960788 -0.9278556 -2.3252294
1.2743785 -2.1677184 -0.54937196 2.9097762 -0.3706102 -1.1643363 -1.5829507 -1.1882125
-1.4072998 -0.16539173 -1.2136984 0.74088866 0.2250878 -0.8711496 -2.6183655 0.9783146
-0.71692395 4.742218 2.6528895 1.2072093 -0.423145 -0.28848955 -2.7345457 0.3033962
-1.6351858 3.927782 -0.16520426 -3.6216185 0.88076854 -0.90555674 0.28312698 0.76003855
-1.6703634 2.367369 1.210239 0.5942176 0.24918078 -0.64294875 -3.5644898 0.3453406
-0.77235043 2.5432448 -1.380764 -0.9844827 -4.034118 -3.5658956 1.1010243 4.206811
1.8127706 -2.063057 -0.6758193 1.3691955 -0.34929174 2.6144133 0.85045654 0.9000435
-2.0401926 1.7015864 3.3221292 3.8264155 -0.12961538 1.0622189 -1.9685988 2.1170156
0.7852508 2.1552615 -1.198019 0.80433667 -0.77478683 0.26106405 1.4210951 1.402683
0.18507886 0.23185775 1.0972269 1.0379351 3.5337238 1.0813001 0.10771012 -2.2535796
-1.0259407 -2.1325142 3.8800519 0.08445282 1.5972159 -0.11272169 1.5163485 0.46148384
-1.7194042 -0.77495384 0.71785 -2.0312562 -0.019242331 1.9914293 2.978477 1.1472517
1.2768012 0.12188671 0.28883678 0.08125144 1.0378984 -0.094630145 -0.75842243 2.9372027
1.6071446 0.33202592 2.0855718 0.9416514 0.9877782 -1.5949097 1.5659072 0.5661436
0.7281092 0.19267079 -0.8342721 -1.6353351 1.5462103 1.679335 -2.1027203 1.1012615
-0.7393314 1.3511411 0.3955414 -0.3910938 0.85720485 0.37569255 3.2684112 2.5430007
-0.8894435 2.8119633 -0.8141251 -1.0538822 -1.8086206 -0.48782957 0.46768585 1.4978688
2.704407 -0.6322153 -1.2360691 -2.3652854 1.2966462 1.3974837 2.4938667 0.6041391
-0.52985 0.7349152 4.3774276 0.6982562 1.1869028 -0.19927907 0.17234072 1.9152765
-0.33435744 -0.50228995 -0.98344547 1.6257935 -0.6387033 -0.3725272 -0.42072672 -1.0899577
0.8149195 -0.13547029 -1.5110143 -0.47806627 -1.4911629 -0.57341844 1.107516 0.52024806
-1.661239 -1.590515 -2.0775745 3.3997743 1.9277121 -0.55432403 -0.67833 2.2819028
-0.77160126 -2.866623 -0.6149061 2.507862 1.482694 0.5524472 1.6969618 -0.2826856
-0.20085733 -1.738151 0.36896104 -2.0571856 1.9254731 2.5589147 1.326577 1.6802756
-0.52581465 0.0029494788 -1.513996 -1.0183976 0.7417992 -0.18606229 0.45454645 -0.28920782
1.4010179 1.1574361 0.26792 2.1297588 1.0265063 0.90401906 -0.26807454 0.9621692
1.9780186 -0.697674 -0.27050212 -0.25515717 2.4924636 -2.943282 -1.0511416 -0.5895983
00000000: 42e6 5040 cb51 96bf af9a f7be c4e8 0940
00000010: da82 4540 4d37 1dc0 862b 1540 0148 8b3f
00000020: ded9 71bf f79d 73c0 430e 30bf bf40 0740
00000030: 5e78 f73f c197 9fbf c73a 973f 5c70 03bf
00000040: e3c6 ae3f 9b2d 28bf 1762 8a3f 4740 563e
00000050: 8a25 e43f 9d7d 1d40 c9c9 a63e 18a9 0e3f
00000060: cf62 88bf dbf2 ac3e 1154 f73c ad60 9240
00000070: 72be 4640 2709 6bbf f800 753f 9f79 5c3f
00000080: 20f4 d43f 35a8 043f d86d 8b3f 57d3 ccbf
00000090: b2ea a83e 837f ffbf f287 6dbf 8fd0 14c0
000000a0: d61e a33f e6bb 0ac0 a4a3 0cbf c639 3a40
000000b0: 9fc0 bdbe f908 95bf 219e cabf 5917 98bf
000000c0: 6622 b4bf 735c 29be 785a 9bbf e1aa 3d3f
000000d0: 6b7d 663e a903 5fbf 4d93 27c0 d372 7a3f
000000e0: 5488 37bf 40c0 9740 f1c8 2940 d685 9a3f
000000f0: 76a6 d8be e7b4 93be cc02 2fc0 bf56 9b3e
00000100: c54d d1bf c860 7b40 4e2b 29be 99c8 67c0
00000110: 0c7a 613f 91d2 67bf 05f6 903e e391 423f
00000120: 78ce d5bf f982 1740 1de9 9a3f a51e 183f
00000130: 3f29 7f3e 4a98 24bf 9a20 64c0 7cd0 b03e
00000140: c2b8 45bf 86c4 2240 e0bc b0bf 0f07 7cbf
00000150: 7f17 81c0 a237 64c0 5dee 8c3f 329e 8640
00000160: de08 e83f 2009 04c0 7e02 2dbf cc41 af3f
00000170: 5ed6 b2be 8c52 2740 85b7 593f 4069 663f
00000180: 8492 02c0 95cd d93f c49d 5440 fee3 7440
00000190: e5b9 04be caf6 873f 0cfb fbbf 2f7d 0740
000001a0: 3206 493f ceef 0940 b058 99bf 02e9 4d3f
000001b0: 6e58 46bf 30aa 853e 72e6 b53f 1e8b b33f
000001c0: 5085 3d3e 1e6c 6d3e ee71 8c3f 0fdb 843f
000001d0: 8828 6240 0b68 8a3f 2097 dc3d a63a 10c0
000001e0: 0652 83bf 1d7b 08c0 c552 7840 9af5 ac3d
000001f0: 9271 cc3f a1da e6bd b517 c23f 9c47 ec3e
00000200: 7015 dcbf 6063 46bf 05c5 373f 1a00 02c0
00000210: 18a2 9dbc 28e7 fe3f 5e9f 3e40 25d9 923f
00000220: 396e a33f bd9f f93d 6ae2 933e 2867 a63d
00000230: dbd9 843f 73cd c1bd f927 42bf 21fb 3b40
00000240: eab6 cd3f 4dff a93e 027a 0540 1110 713f
00000250: 08df 7c3f 0026 ccbf a66f c83f c9ee 103f
00000260: 5d65 3a3f 7e4b 453e db92 55bf a952 d1bf
00000270: 38ea c53f 73f4 d63f f892 06c0 23f6 8c3f
00000280: d344 3dbf 31f2 ac3f 6784 ca3e 723d c8be
00000290: c771 5b3f c65a c03e a62d 5140 86c0 2240
000002a0: 92b2 63bf 35f7 3340 816a 50bf 9de5 86bf
000002b0: e180 e7bf ccc4 f9be 8574 ef3e 2aba bf3f
000002c0: 0115 2d40 ddd8 21bf 8337 9ebf d660 17c0
000002d0: 81f8 a53f bfe0 b23f 839b 1f40 dca8 1a3f
000002e0: 40a4 07bf 6723 3c3f e313 8c40 ebc0 323f
000002f0: 6eec 973f d00f 4cbe 167a 303e c827 f53f
00000300: e630 abbe 1396 00bf 15c3 7bbf 001a d03f
00000310: 0f82 23bf e3bb bebe 7e69 d7be bc83 8bbf
00000320: 909e 503f b9b8 0abe eb68 c1bf 1ac5 f4be
00000330: 6dde bebf 8dcb 12bf 16c3 8d3f fa2e 053f
00000340: 7ba3 d4bf ff95 cbbf fbf6 04c0 e795 5940
00000350: 45bf f63f 2ee8 0dbf 09a7 2dbf b20a 1240
00000360: a987 45bf c076 37c0 7c6a 1dbf d080 2040
00000370: ebc8 bd3f 2e6d 0d3f 0b36 d93f 2bbc 90be
00000380: 8bad 4dbe bb7b debf 76e8 bc3e eea8 03c0
00000390: e775 f63f 42c5 2340 46cd a93f 4513 d73f
000003a0: ca9b 06bf 0b4c 413b 9fca c1bf da5a 82bf
000003b0: 8de6 3d3f 1d87 3ebe 50ba e83e 0c13 94be
000003c0: 8e54 b33f de26 943f cf2c 893e f84d 0840
000003d0: 8f64 833f cb6d 673f 1141 89be b850 763f
000003e0: b72f fd3f c39a 32bf 417f 8abe f6a3 82be
000003f0: 8684 1f40 bb5e 3cc0 cf8b 86bf eaef 16bf

weight f4 [1683, 64]
-1.0723524 -1.5874388 -0.23699482 -1.3109996 3.244691 -4.8403645 2.6313016 -0.106741644
-1.7219754 -0.1131655 0.06290615 -2.4898276 -0.57929224 -1.8520205 1.1774733 0.16028942
1.0337416 -0.8335571 -1.1184992 2.3833406 -0.8789455 1.6494678 -0.34684375 -2.1558583
6.3165946 -1.3424942 1.5070097 -4.2970724 -0.22271216 0.14791481 -0.098151766 -2.9659617
0.12115578 -0.071436666 -1.9889271 2.7876937 1.5977606 -0.33208123 -1.2993625 3.136249
0.06604296 -1.1612948 4.870717 0.29341215 0.8033108 1.8261429 1.6121037 -0.19545841
3.2264085 -2.7927752 -1.0413731 -0.105030164 -0.81906873 -0.9906029 -1.9388204 0.08260313
-1.5603065 0.08893505 -3.5703893 -4.5882397 -0.9962194 2.0968792 -1.6249709 1.0455067
0.7513909 -0.4886819 0.6172059 2.7544694 2.4220133 1.4957329 0.78433347 4.553061
0.86464757 2.1938148 0.20989116 -1.2180979 -1.3921151 -2.3987744 2.4150057 1.7143698
2.1099362 -1.2844225 -3.5607884 -1.3073633 1.3590722 4.3723016 0.6367358 0.12891006
4.489891 1.7740259 -1.1671555 -1.3458906 0.64690566 -2.4891052 1.1989638 -2.7057147
-1.2265491 1.7446611 -1.8421811 2.6141205 3.101718 -0.7030061 3.0754855 0.63677794
1.2710869 1.0107341 4.5274324 -2.5767655 2.524501 -0.5141513 0.082614444 -2.975727
0.66394454 0.91437376 -0.95182925 1.9324911 -0.55795246 -0.82965016 -0.034451775 1.894111
0.6961633 -0.9463625 -0.64289165 -4.0309286 2.5795004 0.1319173 -4.5624027 2.9905992
-0.36086997 1.9834913 0.5120249 0.44568667 -3.5256827 -2.355966 -3.3604784 -0.7987646
0.34335428 -4.6343102 -0.5199211 3.117645 2.5088694 0.68685955 -1.1757458 1.0714883
-1.52027 1.1439222 5.5995317 2.2150173 1.1340665 -0.024744729 0.29625228 -1.4481976
-3.6119697 -1.9005636 2.7957234 1.8540751 -1.3126842 0.050421577 1.9736692 1.3933642
0.67400676 -2.0401783 -1.6973107 -1.9142785 -2.1768312 0.4520209 0.59187704 -1.1891736
0.8725076 -0.8998546 -1.5682677 2.6228364 -5.12772 0.21401577 -0.59136635 3.6484146
-0.5730919 -0.33250746 -2.8458073 0.6974613 -3.6630094 0.11155729 1.894924 0.63591695
4.512308 -1.0175971 0.47991645 2.4473383 -1.5180008 -0.7235425 2.3311014 -3.6758149
0.81985044 -0.5984925 -0.9132988 -2.6843548 0.7635329 -0.24996439 -1.598065 -0.12984213
0.10740951 -1.3367802 0.929336 2.7546763 1.3742303 0.9407432 0.33285478 1.4397744
0.54223824 -1.3327291 -0.99337846 1.8991196 2.5277832 -0.91567063 1.5784634 -0.30837083
-0.3285141 4.1695695 -1.7710706 1.25789 -0.13260135 0.03921094 0.9614183 -1.0773405
0.7470869 0.75565785 0.9738488 -1.5005665 -2.916068 -0.82298785 -0.8211678 1.2087
1.606497 2.5917256 0.44767484 1.1528074 -0.1936929 -0.3778593 -5.71936 -0.12665543
2.4096313 0.38252416 -0.38829663 -1.1190569 -1.2191151 -1.8282175 0.20686647 -2.1917796
2.8072212 -0.6827716 3.330767 1.1837727 1.6625762 -0.19224729 -0.46189135 0.9278739
00000000: d842 89bf 3231 cbbf c5ae 72be d6ce a7bf
00000010: 04a9 4f40 44e4 9ac0 3f67 2840 5d9b dabd
00000020: b169 dcbf 50c3 e7bd f1d4 803d 5659 1fc0
00000030: 7f4c 14bf 020f edbf 72b7 963f e922 243e
00000040: a551 843f 0064 55bf fb2a 8fbf a788 1840
00000050: 9302 61bf c321 d33f 8195 b1be 95f9 09c0
00000060: 8b21 ca40 dad6 abbf b2e5 c03f 9e81 89c0
00000070: a80e 64be fb76 173e cb03 c9bd 51d2 3dc0
00000080: 8620 f83d 634d 92bd 2a95 febf 9369 3240
00000090: 6b83 cc3f 8d06 aabe 8351 a6bf 4eb8 4840
000000a0: 8841 873d 4fa5 94bf eadc 9b40 1e3a 963e
000000b0: c7a5 4d3f 0dbf e93f 6a59 ce3f 4026 48be
000000c0: 7a7d 4e40 d4bc 32c0 b74b 85bf 0e1a d7bd
000000d0: 7dae 51bf 2798 7dbf 442b f8bf d42b a93d
000000e0: 20b8 c7bf 9423 b63d 4281 64c0 dcd2 92c0
000000f0: 3c08 7fbf 4533 0640 0cff cfbf 2ad3 853f
00000100: 275b 403f 8434 fabe 3501 1e3f 3a49 3040
00000110: 4402 1b40 2d74 bf3f 14ca 483f adb2 9140
00000120: 8b59 5d3f 7667 0c40 b5ed 563e a2ea 9bbf
00000130: d430 b2bf 8585 19c0 748f 1a40 7870 db3f
00000140: 3209 0740 f567 a4bf f5e3 63c0 ae57 a7bf
00000150: 14f6 ad3f e5e9 8b40 1e01 233f 0001 043e
00000160: 30ad 8f40 4813 e33f 5a65 95bf 2546 acbf
00000170: 9c9b 253f 804d 1fc0 a577 993f 6e2a 2dc0
00000180: 90ff 9cbf 0e51 df3f 97cc ebbf c04d 2740
00000190: 8c82 4640 35f8 33bf c1d4 4440 e103 233f
000001a0: fab2 a23f bc5f 813f bae0 9040 bae9 24c0
000001b0: 6d91 2140 6b9f 03bf c331 a93d 5072 3ec0
000001c0: 45f8 293f 6614 6a3f 15ab 73bf de5b f73f
000001d0: f9d5 0ebf f463 54bf 4e1d 0dbd 3b72 f23f
000001e0: c237 323f d044 72bf 8c94 24bf 5efd 80c0
000001f0: 8916 2540 5415 073e 34ff 91c0 fa65 3f40
00000200: f3c3 b8be 0be3 fd3f 1014 033f 0b31 e43e
00000210: c9a4 61c0 26c8 16c0 1412 57c0 d67b 4cbf
00000220: 22cc af3e 454c 94c0 8d19 05bf 7f87 4740
00000230: 5191 2040 07d6 2f3f d77e 96bf 8726 893f
00000240: 3598 c2bf 0b6c 923f 5d2f b340 d8c2 0d40
00000250: 1729 913f 75b5 cabc 61ae 973e 8a5e b9bf
00000260: 832a 67c0 ab45 f3bf 22ed 3240 5552 ed3f
00000270: 0906 a8bf db86 4e3d 31a1 fc3f c259 b23f
00000280: b58b 2c3f 4892 02c0 7a41 d9bf 1407 f5bf
00000290: 3451 0bc0 496f e73e 4185 173f d736 98bf
000002a0: a85c 5f3f df5c 66bf ffbc c8bf 8ddc 2740
000002b0: 4816 a4c0 f326 5b3e c963 17bf a07f 6940
000002c0: 27b6 12bf 6b3e aabe b521 36c0 d38c 323f
000002d0: bf6e 6ac0 2678 e43d df8c f23f 74cb 223f
000002e0: d464 9040 9f40 82bf 9cb7 f53e 31a1 1c40
000002f0: da4d c2bf 153a 39bf c430 1540 8d40 6bc0
00000300: b8e1 513f ce36 19bf f3cd 69bf 78cc 2bc0
00000310: e476 433f aaf6 7fbe 658d ccbf 56f5 04be
00000320: 84f9 db3d 9d1b abbf f7e8 6d3f 9e4c 3040
00000330: c7e6 af3f 8cd4 703f f16b aa3e 874a b83f
00000340: 20d0 0a3f de96 aabf 0d4e 7ebf 5a16 f33f
00000350: 33c7 2140 6469 6abf 170b ca3f c8e2 9dbe
00000360: 0033 a8be 1d6d 8540 71b2 e2bf 8a02 a13f
00000370: a6c8 07be a79b 203d 821f 763f 4be6 89bf
00000380: 1641 3f3f cb72 413f 284e 793f 9012 c0bf
00000390: dca0 3ac0 55af 52bf 0e38 52bf aeb6 9a3f
000003a0: b2a1 cd3f d5de 2540 a335 e53e 318f 933f
000003b0: 6e57 46be c676 c1be ff04 b7c0 f6b1 01be
000003c0: 6637 1a40 35da c33e d1ce c6be 423d 8fbf
000003d0: f70b 9cbf 0803 eabf ced4 533e 1e46 0cc0
000003e0: 83a9 3340 1fca 2ebf 492b 5540 dd85 973f
000003f0: 4ccf d43f 79dc 44be 067d ecbe 2589 6d3f

weight f4 [64, 128]
-1.2512932 0.36825237 -0.71913975 1.9360772 -0.80823743 -0.6193668 -1.523651 1.4828112
0.3446319 -1.6131022 1.4558452 1.0224555 0.6672986 0.57288766 1.1980054 0.8187358
0.402814 0.9194212 -0.44973207 2.3082747 1.0055544 -0.20556788 0.6152589 -1.3091192
0.16436355 -0.21665297 -1.0730846 -0.5338971 0.1475093 0.95142287 0.709774 -1.3173305
2.695712 0.4402519 -0.81305724 -1.3176284 2.1157417 0.8129573 0.7948829 0.07445796
0.1470607 -0.98727095 1.5590093 -2.7029123 -0.19651268 -1.5556073 2.8283803 1.1275867
1.4468108 -2.758105 -0.4748153 0.36393732 -0.40451524 0.5406775 -0.99502575 0.88780147
-0.60736626 0.50762975 0.7868316 -0.24133353 1.0078043 -2.0438485 0.4562331 -0.71565795
-0.78475964 -2.2817223 1.4820933 -0.24409616 2.908113 -0.8780947 -0.2488205 0.36804768
-2.1347766 -0.5478416 -0.9087524 -1.6373644 -0.117648296 -0.26394805 0.3349562 -0.5278324
-0.6268255 -1.1247431 0.15580349 -1.9809446 -0.32908344 0.76667005 1.5036963 -1.4447638
1.2550182 -2.2172773 2.1559072 -1.3672485 -0.9627164 1.6740845 0.6084611 0.4522746
0.17291754 -0.5430871 0.48215687 1.0674304 0.38448247 -0.40715402 0.9290056 -0.8466789
-1.2145103 -0.89459103 -0.95228213 -0.7689789 0.7078803 -0.2665079 1.2144461 0.65636903
-1.9532304 0.036114376 -1.3286766 0.45381612 0.04545273 -0.77252585 -0.800382 1.1377844
-3.328436 -1.7001919 -2.060868 -1.1977236 -2.772079 0.28562972 -0.26778892 -0.4803679
0.8201611 -0.25041693 -1.5601126 0.21212423 0.771395 -0.28905538 -1.9516661 -0.9431596
-1.1662222 -1.2594863 -0.38409817 1.0783955 -1.524217 -0.30012068 0.53042954 -0.9397617
0.32192603 0.46855053 0.5722928 -0.45357463 1.7453673 0.64183325 -1.094748 0.014385671
-0.32290205 0.4999156 0.63050514 2.524243 -0.41391048 -1.972002 2.0550594 2.8966396
1.4807572 0.3247058 0.4089023 -4.354472 -2.9397185 -0.46137157 -0.22635564 -1.3975058
-2.485181 -1.6412116 -0.92877007 0.48102763 -0.8250169 -0.74214286 -0.97895634 1.8336861
0.4952816 -0.87177175 2.059243 1.3546405 -0.8104081 -1.2980492 -1.9013026 0.87946016
-1.8995359 2.0678923 -1.1980466 0.9441687 -1.1222703 -0.21176276 -1.900655 -0.96101034
-0.7079676 -0.15522574 1.3115385 -1.3514415 0.41999596 -0.61029994 -1.0061624 0.3359816
2.4273448 -2.0125072 -0.6392683 0.3673918 0.46562272 0.5458911 -0.67411196 2.60836
-1.2421639 -0.21322984 1.2541234 -2.7554908 1.4928113 -1.6625159 1.4276705 -1.3216715
-1.894243 -0.22277518 -0.38453308 1.9507406 -0.121283084 0.7324634 -0.4622179 -0.48351237
0.86284924 2.6520264 1.4889866 -3.4463866 -0.67039645 0.877702 0.52280676 0.7762618
-0.05332331 0.7483278 0.33210367 1.6475927 -2.2880442 -0.33149993 0.49034774 2.6311193
-0.94964874 1.2053294 -1.3636525 -1.8850628 -2.093826 0.1943447 -0.61253196 -2.7682693
1.8399235 -1.7750242 1.5669827 -0.19865975 -1.2635165 1.0800662 0.43227217 0.6597788
00000000: 602a a0bf 938b bc3e 8b19 38bf 61d1 f73f
00000010: a6e8 4ebf d38e 1ebf ff06 c3bf c2cc bd3f
00000020: 9873 b03e 227a cebf 2359 ba3f d2df 823f
00000030: 15d4 2a3f c4a8 123f 3e58 993f ab98 513f
00000040: a33d ce3e 305f 6b3f 4843 e6be c6ba 1340
00000050: 02b6 803f 6380 52be 9b81 1d3f 3891 a7bf
00000060: eb4e 283e 47da 5dbe d65a 89bf 7bad 08bf
00000070: ae0c 173e 7390 733f c0b3 353f 499e a8bf
00000080: 8c86 2c40 b268 e13e 8524 50bf 0ca8 a8bf
00000090: 5068 0740 f81d 503f 727d 4b3f 6a7d 983d
000000a0: 1597 163e cabd 7cbf 9e8d c73f 84fc 2cc0
000000b0: 9f3a 49be 241e c7bf 2f04 3540 c354 903f
000000c0: 1931 b93f cb84 30c0 fe1a f3be fe55 ba3e
000000d0: 9f1c cfbe d769 0a3f 02ba 7ebf f546 633f
000000e0: 5b7c 1bbf 06f4 013f cc6d 493f 2320 77be
000000f0: bbff 803f 6ace 02c0 6397 e93e 5c35 37bf
00000100: 02e6 48bf bd07 12c0 3cb5 bd3f 58f4 79be
00000110: 861e 3a40 d0ca 60bf cdca 7ebe bf70 bc3e
00000120: 2ea0 08c0 593f 0cbf ffa3 68bf 2895 d1bf
00000130: 97f1 f0bd 3324 87be 617f ab3e 0620 07bf
00000140: a377 20bf 95f7 8fbf f38a 1f3e 988f fdbf
00000150: a07d a8be 7d44 443f 1f79 c03f 05ee b8bf
00000160: 70a4 a03f dfe7 0dc0 62fa 0940 0002 afbf
00000170: 9574 76bf 6748 d63f 1bc4 1b3f 8990 e73e
00000180: 4c11 313e c207 0bbf 44dd f63e 8fa1 883f
00000190: e3da c43e 7e76 d0be 50d3 6d3f f3bf 58bf
000001a0: 1375 9bbf eb03 65bf c3c8 73bf cddb 44bf
000001b0: a537 353f b973 88be f872 9b3f cd07 283f
000001c0: 7403 fabf abec 133d 1312 aabf 965a e83e
000001d0: a42c 3a3d 41c4 45bf d6e5 4cbf eba2 913f
000001e0: 1805 55c0 e39f d9bf 43e5 03c0 024f 99bf
000001f0: be69 31c0 0f3e 923e a11b 89be c8f2 f5be
00000200: 14f6 513f a636 80be c5b1 c7bf 1837 593e
00000210: 257a 453f 11ff 93be 32d0 f9bf e872 71bf
00000220: c546 95bf d936 a1bf 84a8 c4be dd08 8a3f
00000230: 8b19 c3bf 6ba9 99be 3bca 073f 3994 70bf
00000240: 7dd3 a43e dbe5 ef3e c881 123f ef3a e8be
00000250: 3268 df3f 2f4f 243f b420 8cbf e1b1 6b3c
00000260: 6b53 a5be f0f4 ff3e c968 213f 338d 2140
00000270: 13ec d3be 906a fcbf 1886 0340 8b62 3940
00000280: 7489 bd3f d73f a63e a45b d13e d657 8bc0
00000290: 5924 3cc0 e538 ecbe c6c9 67be 78e1 b2bf
000002a0: 350d 1fc0 3913 d2bf e0c3 6dbf 4149 f63e
000002b0: 4f34 53bf 13fd 3dbf e29c 7abf 3ab6 ea3f
000002c0: 8d95 fd3e 6f2c 5fbf a3ca 0340 dc64 ad3f
000002d0: e876 4fbf 7a26 a6bf e25d f3bf 4d24 613f
000002e0: fe23 f3bf 5958 0440 9759 99bf 0ab5 713f
000002f0: 8ea6 8fbf 56d8 58be aa48 f3bf c604 76bf
00000300: 5d3d 35bf 7ff3 1ebe 7ee0 a73f 09fc acbf
00000310: b609 d73e 9e3c 1cbf eec9 80bf c805 ac3e
00000320: 9e59 1b40 ebcc 00c0 16a7 23bf c71a bc3e
00000330: 1a66 ee3e 85bf 0b3f 9a92 2cbf 5fef 2640
00000340: 3aff 9ebf ec58 5abe 1e87 a03f f659 30c0
00000350: 7114 bf3f 52cd d4bf e8bd b63f 882c a9bf
00000360: 8e76 f2bf 2d1f 64be 85e1 c4be deb1 f93f
00000370: 4463 f8bd b982 3b3f d3a7 ecbe ef8e f7be
00000380: b0e3 5c3f cdba 2940 1d97 be3f 9991 5cc0
00000390: 1a9f 2bbf 14b1 603f aad6 053f 18b9 463f
000003a0: 8b69 5abd 6992 3f3f 7e09 aa3e 51e4 d23f
000003b0: 516f 12c0 5cba a9be dc0e fb3e 4264 2840
000003c0: 2e1c 73bf 3c48 9a3f 2a8c aebf bd49 f1bf
000003d0: 3f01 06c0 4c02 473e e5ce 1cbf 532b 31c0
000003e0: 9d82 eb3f fe33 e3bf e492 c83f 766d 4bbe
000003f0: e9ba a1bf 9c3f 8a3f c752 dd3e 43e7 283f

bias f4 [64]
-5.790546 -4.8434243 0.4103617 -3.497739 1.0863965 -2.980335 -4.7879953 -2.6699483
-3.416755 -3.6714413 -3.9564407 -3.4759793 -2.6735132 -4.383368 -2.7548637 0.365036
-0.90625143 -3.1771204 -5.8048882 -3.9149241 -4.3125854 -2.7466335 -4.420423 -5.361667
-4.383407 -1.126745 -2.6367302 -3.4456556 -3.0458732 -2.4260616 -3.360471 -3.4381588
-2.0696633 -2.562755 -2.4667695 -0.93277496 -1.7077026 -3.7849932 -2.1299143 -0.21632265
-1.3617953 -1.6542839 -4.734669 -4.1143 -1.2110801 -4.3571796 -2.4700198 -0.83199376
-1.9767925 -2.0422082 -5.694451 -2.8034503 -3.197161 -3.9493601 -3.5040765 -4.6148143
-1.237148 -1.8107526 -2.6734557 -3.2417464 -3.6595142 -1.7262651 -3.4427242 -1.931198
00000000: 274c b9c0 55fd 9ac0 ee1a d23e f5da 5fc0
00000010: 0a0f 8b3f cfbd 3ec0 4237 99c0 6fe0 2ac0
00000020: 1dac 5ac0 e5f8 6ac0 5336 7dc0 7276 5ec0
00000030: d71a 2bc0 8d44 8cc0 b04f 30c0 00e6 ba3e
00000040: 1800 68bf f155 4bc0 a5c1 b9c0 1e8e 7ac0
00000050: b300 8ac0 d8c8 2fc0 1b74 8dc0 c792 abc0
00000060: df44 8cc0 2e39 90bf 30c0 28c0 9f85 5cc0
00000070: 96ef 42c0 9844 1bc0 f511 57c0 cb0a 5cc0
00000080: 5d75 04c0 2e04 24c0 8ddf 1dc0 57ca 6ebf
00000090: 0096 dabf 543d 72c0 8450 08c0 af83 5dbe
000000a0: 4f4f aebf 93bf d3bf 6982 97c0 58a8 83c0
000000b0: ac04 9bbf 046e 8bc0 ce14 1ec0 8bfd 54bf
000000c0: 8907 fdbf 8ab3 02c0 f138 b6c0 bb6b 33c0
000000d0: 499e 4cc0 51c2 7cc0 ca42 60c0 8fac 93c0
000000e0: de5a 9ebf bec6 e7bf e619 2bc0 c678 4fc0
000000f0: 7b35 6ac0 41f6 dcbf 9855 5cc0 7f31 f7bf

weight f4 [32, 64]
-0.6787891 0.4199922 -2.8139145 -0.48743057 -1.6318811 0.30399483 0.66698456 1.1910262
0.8170085 -1.4182953 -0.91855294 0.7397266 -0.6808868 0.76843536 -0.019848183 0.052544694
-2.4143121 -2.508091 0.43145472 -0.16297865 0.12383971 -3.3889518 1.5761229 1.0616162
0.27285373 0.031199388 0.90754837 0.36413574 1.0834665 -1.2505581 -1.60263 0.70006
-1.4968474 -1.290729 0.14115766 -0.7486836 -1.7437094 -1.8630567 -0.39663935 -1.6699907
0.6374247 -0.5320387 1.2248837 0.1871943 -1.6287426 -0.15991512 -1.9432287 -1.3403534
-0.9794904 0.32063264 -3.6418948 0.12816064 -1.9142911 -2.6406517 0.26121494 0.64133936
-2.81253 0.13767084 -0.78656965 -0.41901013 1.1439754 -1.8672382 -1.4614522 -0.8476827
-0.9202919 0.4599698 -2.21968 1.7817134 -2.2622595 -0.4120265 -0.38379523 -1.2238306
-1.1257777 1.4057566 -0.39762378 0.9498326 0.5289936 1.0025189 0.346685 -2.2156162
-3.6221905 0.96518564 1.4984117 -0.7194056 -0.8200754 1.0383087 0.34044966 -0.21037789
0.7027225 -2.7069108 0.9975581 -0.33127493 -0.69904625 0.47971895 0.5933999 -0.66884327
0.86545175 -1.5284195 1.022332 -0.284848 -2.8324618 -2.1275213 -0.52431124 0.08279426
0.6563468 -1.7675114 1.0283552 -0.65545934 -1.1598408 -0.28527457 -0.63899165 -2.0535676
-0.7458901 -1.2705283 -0.6897806 0.18720455 -2.212561 0.29041466 -0.023961559 2.096341
-3.2429512 -2.3170621 -1.5992429 -0.006820775 0.20544325 -1.5315889 0.8005821 0.16604292
0.08127536 -2.088192 0.37867105 0.029675102 -1.330174 0.06401056 -1.0029918 -0.4602754
-1.0823271 0.08166092 -1.1066936 -0.5780152 -0.345344 -1.5707654 -0.26594767 -1.8289638
-0.6557216 -1.8332236 -0.087795 -0.8869743 -1.1266422 -0.24248509 -1.0202332 -1.4652927
0.24455145 -1.8292918 -0.7296792 -1.5364398 0.9851779 1.059176 0.13699308 -0.2348333
0.6017798 -1.004003 0.83166164 -1.3686546 -0.6212133 -0.5828337 0.036976516 -1.5680163
-0.5227918 -1.284566 -2.6749136 0.23826858 -0.6319036 -2.4512217 0.62613434 0.9581128
1.2554915 -0.113154404 -0.022897162 -1.4941516 0.19971806 -2.5690916 2.1184304 -2.271243
-0.20224 -0.729804 -0.5570898 -1.0226469 0.14564769 0.5949812 -0.4893874 -0.94939125
-0.5265387 -0.06344767 -0.72340786 -0.32594475 -0.9690455 -0.781573 -0.4443665 -0.5223057
-0.55502546 -0.36105418 0.18713166 -0.24101368 -0.7168125 -0.5429605 -0.15967855 -0.7528557
-1.0210849 -0.54346293 -0.5659004 -0.33788478 -0.5906062 -0.24955031 -0.65231884 -0.107370496
-0.4325385 -0.80382127 -0.14638369 -0.39349186 0.82764506 -0.6923625 0.26601863 -0.44105893
-0.74293315 -0.5745415 -0.13799451 -0.61302346 -0.11948053 -0.42242888 -0.26049387 -0.49610803
0.0051712207 -0.44309133 -0.069543004 0.3409606 -0.38896284 0.09482187 0.059671212 -0.53901964
-0.08386565 -0.4714587 -0.79618514 -0.21625543 0.16210192 -0.25115404 0.18570335 -0.04624302
-0.87714374 -0.7836014 -0.3602011 -0.29694724 -0.498442 0.045542262 0.020465506 -0.95433044
00000000: 1fc5 2dbf 3809 d73e 2d17 34c0 8090 f9be
00000010: 7be1 d0bf 36a5 9b3e 80bf 2a3f 8c73 983f
00000020: 7827 513f b38a b5bf 4926 6bbf b95e 3d3f
00000030: 994e 2ebf 2eb8 443f a898 a2bc 1b39 573d
00000040: 1784 1ac0 9084 20c0 a2e7 dc3e e0e3 26be
00000050: ad9f fd3d 96e4 58c0 65be c93f 0ae3 873f
00000060: 7cb3 8b3e dc95 ff3c 1755 683f 0070 ba3e
00000070: 08af 8a3f 4a12 a0bf fb22 cdbf 2237 333f
00000080: b298 bfbf 9c36 a5bf a28b 103e baa9 3fbf
00000090: df31 dfbf a478 eebf 5014 cbbe 41c2 d5bf
000000a0: 442e 233f b033 08bf fdc8 9c3f ddaf 3f3e
000000b0: a37a d0bf cac0 23be b8bb f8bf b390 abbf
000000c0: e2bf 7abf f629 a43e ce14 69c0 8b3c 033e
000000d0: 7e07 f5bf 7000 29c0 f7bd 853e d12e 243f
000000e0: 7e00 34c0 96f9 0c3e a15c 49bf 7f88 d6be
000000f0: c96d 923f a901 efbf de10 bbbf bc01 59bf
00000100: 4098 6bbf 2981 eb3e 3d0f 0ec0 2f0f e43f
00000110: dcc8 10c0 23f5 d2be cf80 c4be 7ba6 9cbf
00000120: 7c19 90bf d5ef b33f 5895 cbbe 3b28 733f
00000130: 206c 073f 8a52 803f b280 b13e a8cc 0dc0
00000140: f8d1 67c0 6816 773f f4cb bf3f f72a 38bf
00000150: 76f0 51bf 4de7 843f 6b4f ae3e 4d6d 57be
00000160: 9fe5 333f 073e 2dc0 f85f 7f3f de9c a9be
00000170: b2f4 32bf b99d f53e 0ee9 173f 5039 2bbf
00000180: 3f8e 5d3f 40a3 c3bf c6db 823f 99d7 91be
00000190: 0e47 35c0 4f29 08c0 4339 06bf 0990 a93d
000001a0: 5806 283f d03d e2bf 25a1 833f 2fcc 27bf
000001b0: aa75 94bf 820f 92be f594 23bf a76d 03c0
000001c0: a7f2 3ebf aca0 a2bf 7695 30bf 8db2 3f3e
000001d0: 999a 0dc0 3bb1 943e 084b c4bc 732a 0640
000001e0: 838c 4fc0 bf4a 14c0 feb3 ccbf cf80 dfbb
000001f0: b75f 523e 1b0b c4bf f3f2 4c3f 2807 2a3e
00000200: b273 a63d f0a4 05c0 2ce1 c13e 3319 f33c
00000210: 2443 aabf f817 833d 0962 80bf 38a9 ebbe
00000220: b289 8abf d73d a73d 23a8 8dbf cef8 13bf
00000230: eed0 b0be d70e c9bf 4b2a 88be 7c1b eabf
00000240: 5fdd 27bf 12a7 eabf ddcd b3bd bf10 63bf
00000250: d035 90bf 034e 78be 0097 82bf b68e bbbf
00000260: b26b 7a3e 3c26 eabf 42cc 3abf 0faa c4bf
00000270: 9e34 7c3f 1493 873f ea47 0c3e 2478 70be
00000280: 3e0e 1a3f 2c83 80bf c7e7 543f 1330 afbf
00000290: d607 1fbf 9734 15bf b074 173d c2b4 c8bf
000002a0: afd5 05bf a96c a4bf c931 2bc0 aefc 733e
000002b0: 6fc4 21bf d1e0 1cc0 574a 203f e146 753f
000002c0: f2b3 a03f 7fbd e7bd d492 bbbc 5c40 bfbf
000002d0: e482 4c3e ff6b 24c0 5d94 0740 0c5c 11c0
000002e0: 0118 4fbe 6fd4 3abf 709d 0ebf 18e6 82bf
000002f0: ab24 153e b050 183f fc90 fabe 4e0b 73bf
00000300: 3ecb 06bf daf0 81bd 4231 39bf 3be2 a6be
00000310: 5e13 78bf 2b15 48bf 0284 e3be d4b5 05bf
00000320: 2616 0ebf 18dc b8be 719f 3f3e 4acc 76be
00000330: 0681 37bf 76ff 0abf c682 23be 27bb 40bf
00000340: e9b2 82bf 6320 0bbf d9de 10bf 3cff acbe
00000350: f831 17bf 1e8a 7fbe 5efe 26bf 10e5 dbbd
00000360: b075 ddbe 3bc7 4dbf 9be5 15be c477 c9be
00000370: 8ce0 533f ab3e 31bf 9833 883e 7ad2 e1be
00000380: de30 3ebf 2715 13bf 6f4e 0dbe 1bef 1cbf
00000390: 35b2 f4bd 9948 d8be 745f 85be df01 febe
000003a0: 5873 a93b dedc e2be 906c 8ebd 6392 ae3e
000003b0: 2326 c7be f831 c23d cd69 743d 31fd 09bf
000003c0: c1c1 abbd 0963 f1be cad2 4bbf 1072 5dbe
000003d0: 0cfe 253e 4397 80be 0529 3e3e 5269 3dbd
000003e0: 7e8c 60bf 1a9a 48bf 476c b8be 7809 98be
000003f0: ca33 ffbe 868a 3a3d 47a7 a73c 004f 74bf

bias f4 [32]
-0.9534563 -1.9701363 -1.4649142 -0.74046516 -0.96741 0.44067955 -0.545317 -0.012900302
-1.1758522 0.12191824 -0.048173517 -0.69935757 -0.91619897 -1.4809242 0.06135084 -0.88648254
-0.20908839 -1.0965295 -0.03263035 -0.37402007 -0.79490507 -0.39957398 -0.6297765 -1.5596503
3.393336 -1.0647583 -0.6187416 -0.7987875 -0.56616956 -0.46094492 -0.5912616 -0.7310917
00000000: b615 74bf 6d2d fcbf 4f82 bbbf 208f 3dbf
00000010: 2fa8 77bf c0a0 e13e e599 0bbf ca5b 53bc
00000020: 5382 96bf 45b0 f93d 9851 45bd 1909 33bf
00000030: 048c 6abf ed8e bdbf 054b 7b3d 85f0 62bf
00000040: 441b 56be 145b 8cbf 67a7 05bd 8f7f bfbe
00000050: e67e 4bbf f694 ccbe 0839 21bf 9fa2 c7bf
00000060: 6b2c 5940 004a 88bf d965 1ebf 567d 4cbf
00000070: 7df0 10bf f900 ecbe ec5c 17bf d328 3bbf

weight f4 [16, 32]
-0.3183024 -0.08250198 -0.31838056 0.038806047 -0.05454583 -0.24893494 -0.23735078 0.11666853
-0.2238011 -0.33616918 -0.2260167 -0.60084784 -0.22441882 -0.27932557 -0.26833606 0.02400017
0.012418792 -0.28522432 -0.03406084 -0.64956176 -0.15244849 -0.098868325 -0.16932496 -0.07619916
-0.58108276 -0.1692803 -0.07336915 -0.15794209 -0.25191128 0.06741372 0.12355706 -0.031635664
-0.4834134 0.022833647 0.00053000567 -0.06471124 0.06788951 -0.09840654 -0.00446589 -0.07571546
-0.29708228 -1.0989165 -1.6381661 -1.6408151 -0.37596455 0.49843416 -1.1789936 0.15237796
-0.15172261 -0.06149478 0.030635035 -0.64651096 0.76593703 -0.032017168 0.18210928 0.0677024
-1.29557 -0.19674693 -0.5957705 -0.4630371 -0.11028336 -0.06593339 -0.0057966886 -0.09938618
-0.24988557 -0.1198701 -0.031115647 -0.19241746 -0.09478018 -0.13725014 -0.14737502 -0.033200048
-0.24010776 -0.2530609 -0.44071373 -0.62156165 -0.19917178 -0.0017308982 -0.19655162 -0.24138339
-0.17694712 -0.36714667 0.057959385 -0.20507547 -0.15341188 -0.27468485 -0.022252778 -0.03823994
-0.29900277 0.011302425 -0.2509227 -0.28516564 0.022885652 -0.052806113 0.01876132 -0.18205898
0.55743384 -1.3776288 0.2424306 -0.4045876 0.19519018 -0.052981474 0.08308638 -0.14872754
-2.2859852 -1.0321491 -0.36371905 -1.0774823 0.78022987 -0.23080035 -0.95414835 -0.14310762
-0.6000729 0.4099503 0.31054047 1.1885211 0.079400614 0.8093417 0.7757987 0.16274938
0.7164654 0.024102833 0.01414002 -0.09164318 -0.20790039 -0.0069386777 0.15397297 0.101903334
-0.35479233 0.20024312 -0.11076464 -0.1294495 0.023222424 -0.06571543 -0.5044513 -0.03154466
-0.37182847 -0.7389399 -0.7013396 -0.49503338 -0.42061147 0.14665572 -0.82464045 -0.05625067
-0.28831527 -0.52586925 0.12564552 0.2125417 -0.52661276 0.5696567 -0.79706717 -0.43466225
-0.15571326 0.57883334 -0.103578046 -0.54010916 -0.09545236 -0.09391156 0.19173615 -0.31416425
-0.5089422 -0.15109651 -0.14524384 -0.007748273 0.10705979 -0.59163314 -0.044294566 -0.032922737
-0.27820247 -1.6650716 -0.5581412 -1.6126872 0.7883048 0.3692229 -0.6002813 0.0024154123
-0.24657206 -0.23903482 -0.018485866 0.6023975 0.6515839 0.020218812 0.6538102 -0.22356129
-0.63101655 -0.18003805 -0.035782617 -0.33561224 -0.18122189 0.03621578 -0.057724148 0.0657822
-0.11041618 -0.06302024 -0.28294444 -0.041538365 0.092118 -0.09995438 0.56776005 0.056586046
-0.04335624 -0.14791146 -0.24281964 -0.1939611 -0.019055536 -0.18616784 -0.034983143 -0.28094375
-0.109817065 -0.36068767 -0.18922399 -0.118223794 -0.15717523 -0.29165533 -0.048312675 -0.065095864
-0.26253483 -0.004215323 -0.060865507 -0.13629411 0.0074902955 0.17197803 -0.028442731 -0.059145056
-0.68908215 -0.12915586 -0.3175019 0.122675076 -0.2385113 -0.11610647 -0.15348688 0.12393748
-0.5450804 -0.42586127 -0.538609 -0.9288209 -0.083706446 0.006997728 -0.7644337 0.14442457
0.33417806 -0.36631662 -0.020836513 -0.5553634 -0.012014768 -0.10736124 -0.251369 -0.08519104
-0.603044 -0.101267725 -0.27114263 -0.6457861 0.011708998 0.124193296 0.13954632 -0.087900855
00000000: 88f8 a2be ccf6 a8bd c702 a3be 17f3 1e3d
00000010: 736b 5fbd cde8 7ebe 150c 73be e9ef ee3d
00000020: 1e2c 65be 5e1e acbe ec70 67be 2ad1 19bf
00000030: 0cce 65be c303 8fbe 5863 89be 019c c43c
00000040: 3078 4b3c ec08 92be 6183 0bbd ae49 26bf
00000050: 751b 1cbe 7a7b cabd 8663 2dbe 4e0e 9cbd
00000060: d7c1 14bf d157 2dbe 9142 96bd 92bb 21be
00000070: 84fa 80be 3410 8a3d 7c0b fd3d 6694 01bd
00000080: f681 f7be a10d bb3c 14f0 0a3a 5487 84bd
00000090: a809 8b3d 5e89 c9bd 9a56 92bb b510 9bbd
000000a0: 2b1b 98be 4ca9 8cbf 6daf d1bf 3b06 d2bf
000000b0: 6d7e c0be c332 ff3e 43e9 96bf f808 1c3e
000000c0: 2c5d 1bbe f3e1 7bbd 53f6 fa3c be81 25bf
000000d0: 7314 443f 6f24 03bd db7a 3a3e 8ea7 8a3d
000000e0: 3dd5 a5bf 0778 49be 6a84 18bf 3313 edbe
000000f0: 3edc e1bd 1608 87bd 26f2 bdbb fb8a cbbd
00000100: 01e2 7fbe 747e f5bd 3ee6 febc 1509 45be
00000110: 1c1c c2bd 4d8b 0cbe 7ae9 16be c6fc 07bd
00000120: cfde 75be 3391 81be 3ba5 e1be aa1e 1fbf
00000130: b0f3 4bbe 4edf e2ba d444 49be 352d 77be
00000140: a031 35be a6fa bbbe d266 6d3d 4eff 51be
00000150: 0118 1dbe 7ea3 8cbe 754b b6bc 7ca1 1cbd
00000160: e416 99be ce2d 393c f178 80be 3b01 92be
00000170: b17a bb3c 394b 58bd 57b1 993c ab6d 3abe
00000180: fcb3 0e3f 2456 b0bf ba3f 783e 1b26 cfbe
00000190: efdf 473e 1a03 59bd 3129 aa3d 084c 18be
000001a0: 954d 12c0 761d 84bf 6239 babe f1ea 89bf
000001b0: 25bd 473f ed56 6cbe 1143 74bf ce8a 12be
000001c0: 619e 19bf 01e5 d13e 29ff 9e3e 7621 983f
000001d0: ca9c a23d 0531 4f3f be9a 463f c6a7 263e
000001e0: 476a 373f 4e73 c53c 8bab 673c 6baf bbbd
000001f0: d7e3 54be d95d e3bb 17ab 1d3e b2b2 d03d
00000200: 57a7 b5be 880c 4d3e 92d8 e2bd 698e 04be
00000210: f43c be3c d095 86bd b823 01bf f934 01bd
00000220: 4d60 bebe 2a2b 3dbf fe8a 33bf 0475 fdbe
00000230: 635a d7be eb2c 163e a31b 53bf 1a67 66bd
00000240: 0f9e 93be 5e9f 06bf 38a9 003e 88a4 593e
00000250: 18d0 06bf 06d5 113f 980c 4cbf 0d8c debe
00000260: 4c73 1fbe 6c2e 143f ba20 d4bd 9844 0abf
00000270: 877c c3bd b454 c0bd 7b56 443e 23da a0be
00000280: 094a 02bf 0bb9 1abe cdba 14be 3ae5 fdbb
00000290: 2a42 db3d 4575 17bf 386e 35bd fed9 06bd
000002a0: 8e70 8ebe 1121 d5bf 57e2 0ebf 896c cebf
000002b0: 58ce 493f c90a bd3e 09ac 19bf e54b 1e3b
000002c0: 637d 7cbe 8bc5 74be ac6f 97bc b936 1a3f
000002d0: 34ce 263f eca1 a53c 1b60 273f 40ed 64be
000002e0: 4d8a 21bf e55b 38be cb90 12bd 5ed5 abbe
000002f0: 3b92 39be ff56 143d 2870 6cbd d1b8 863d
00000300: e121 e2bd c110 81bd 18de 90be 2224 2abd
00000310: 5da8 bc3d e2b4 ccbd b958 113f c5c6 673d
00000320: 5096 31bd 1a76 17be b6a5 78be bd9d 46be
00000330: 5b1a 9cbc c8a2 3ebe 7c4a 0fbd dcd7 8fbe
00000340: c5e7 e0bd 0eac b8be efc3 41be 511f f2bd
00000350: 8bf2 20be d953 95be 83e3 45bd fb50 85bd
00000360: f76a 86be b120 8abb 1c4e 79bd af90 0bbe
00000370: 2771 f53b 021b 303e bb00 e9bc 1642 72bd
00000380: b067 30bf 6f41 04be 9c8f a2be 123d fb3d
00000390: 4e3c 74be 3bc9 edbd aa2b 1dbe efd2 fd3d
000003a0: 648a 0bbf 7d0a dabe 48e2 09bf 35c7 6dbf
000003b0: 496e abbd 324d e53b edb1 43bf 09e4 133e
000003c0: 6319 ab3e da8d bbbe 56b1 aabc 4c2c 0ebf
000003d0: 97d9 44bc 36e0 dbbd 70b3 80be a478 aebd
000003e0: 1761 1abf 7465 cfbd 35d3 8abe 3d52 25bf
000003f0: 19d7 3f3c 0e59 fe3d 3be5 0e3e 5d05 b4bd

bias f4 [16]
-0.9636355 -2.6035023 -1.0617965 2.5823066 -0.90527564 0.86505795 -0.32963288 -1.3885901
-1.1701636 -1.3083634 -0.0037369712 -2.9492166 -0.8919658 -2.782063 -0.21332936 2.4542043
00000000: d1b0 76bf c89f 26c0 f3e8 87bf 8344 2540
00000010: 25c0 67bf 7074 5d3f a4c5 a8be 52bd b1bf
00000020: ecc7 95bf 7478 a7bf f9e7 74bb f7bf 3cc0
00000030: df57 64bf 520d 32c0 0373 5abe af11 1d40
