models/best.pt (torch, 813203 bytes, 17 tensors)

weight f4 [944, 8]
0.16016427 -1.2932703 0.96436906 0.92792743 2.3161514 -0.8473593 -2.0005298 1.0315114
2.237907 -3.1359499 -0.10696707 -1.6430751 -2.286682 1.5283604 2.4747167 0.12183736
-1.4744865 0.49031377 2.9647033 -0.16846475 -2.5158186 -0.3119932 -6.1937275 0.6100704
0.448735 1.0575356 -0.5533359 0.6151024 1.4829668 0.652979 -1.6418523 -0.73903245
-1.2367164 -1.969659 0.30421582 -5.425059 -4.0926137 0.11055431 -0.44273284 -0.8467962
-2.4244998 2.0187912 1.7825366 -0.88135594 0.5408178 2.2860916 -0.03623704 -0.07585793
-0.41684386 -0.56656283 -0.18172601 -0.7639073 1.7714217 -1.3667938 0.1007511 3.7797246
-1.3647778 1.0104024 -3.4645483 -0.52048934 -0.030031046 1.3769193 0.6654377 1.1863956
-0.7600704 -0.6497165 -2.6127965 0.36821038 1.3011076 -1.986317 0.19765116 -1.5766627
-0.9835535 1.3398747 0.093296245 -2.3623643 3.0305724 -0.24349013 -2.0119162 -0.81099004
-0.06268071 0.5443326 -0.20175062 1.0908136 0.9516354 -0.5937616 0.9692582 -0.5382937
-0.4861599 -0.67175394 -0.9291752 3.2838767 0.47416842 -0.6949256 -1.1224699 -0.77032363
-0.99233705 1.4694513 1.2276691 1.0545468 -3.1134796 2.9035294 0.14424615 1.497706
-0.5849006 1.5483247 2.405605 0.72071445 -0.1003006 -0.06767502 -1.3264564 -0.35552198
1.5185997 -0.29154462 -1.1126537 0.58901495 -0.25234994 2.6071289 4.894306 -0.3773992
1.1766717 1.5051359 1.3643391 -0.4027416 0.2965817 -1.5490284 -3.1612384 2.237058
-0.5872154 -0.25782442 -4.903696 -0.4469989 1.1470358 0.18406159 1.0012298 0.3781542
-2.0453277 0.9019729 0.9662632 0.4253252 0.5363504 0.7598691 -0.13053562 -0.7634406
2.956096 1.1427767 1.5019273 0.13390926 -0.6738693 -0.9983476 -0.84139186 2.17129
-3.0901196 -0.88211787 1.3503906 0.1302903 0.9960757 0.58410895 1.6527632 -0.4523056
1.1637353 -2.1883128 -0.48824435 -0.5704134 0.48373258 0.6691517 1.1568732 -0.9539886
-2.2142713 -0.11067605 1.1956732 0.957946 1.1963019 -0.08768628 -1.2068301 2.0419288
-1.1500235 -1.0984999 -1.4120648 1.5514158 2.5085473 -1.534755 -1.7268864 -1.4197181
0.31529438 1.3281077 0.5272305 -1.8025286 0.422966 -1.7124593 -0.336801 -0.26102868
-2.7533436 -0.18478118 -0.116435386 0.8556296 -0.7369853 0.7965373 -0.18898843 -2.0363019
0.78102046 -0.77072006 1.9645385 0.27795792 -2.8651648 1.1059523 -1.3671058 -1.2364032
-1.6522495 -1.2954783 0.5667072 -1.0670676 -3.5610485 -0.27375114 -1.491818 0.47333258
2.1031969 -1.4953738 2.8132632 2.0797 1.6837734 -1.6749316 0.1083749 -1.3924923
1.5885814 0.6206044 1.0162865 -1.5106372 1.0070965 -2.4790096 -1.2063228 1.6900258
0.4286091 -0.7041818 0.5746674 0.11608087 1.5625888 -0.52415615 1.5874767 4.565881
-0.0760046 0.30146012 0.58323586 1.2715268 -1.215547 -0.59134966 0.2021447 -0.18814848
-1.1411407 2.473251 1.9968401 -0.47935316 1.0473484 2.4549391 0.6076012 -0.10961397
00000000: 1a02 243e e289 a5bf e4e0 763f a78c 6d3f
00000010: d33b 1440 8aec 58bf ae08 00c0 9108 843f
00000020: de39 0f40 67b3 48c0 8d11 dbbd 4950 d2bf
00000030: ff58 12c0 50a1 c33f c261 1e40 de85 f93d
00000040: f9bb bcbf 680a fb3e b3bd 3d40 0682 2cbe
00000050: 2c03 21c0 93bd 9fbe 0433 c6c0 932d 1c3f
00000060: 98c0 e53e 545d 873f 6ca7 0dbf 5a77 1d3f
00000070: dbd1 bd3f a229 273f 3728 d2bf 3b31 3dbf
00000080: b94c 9ebf c91d fcbf 2dc2 9b3e 159a adc0
00000090: b1f6 82c0 4c6a e23d e1ad e2be a3c7 58bf
000000a0: 012b 1bc0 e033 0140 292a e43f 8ba0 61bf
000000b0: 0973 0a3f 534f 1240 4a6d 14bd 675b 9bbd
000000c0: 8f6c d5be 430a 11bf 6216 3abe 6e8f 43bf
000000d0: f2bd e23f 19f3 aebf 9856 ce3d 02e7 7140
000000e0: 0ab1 aebf de54 813f 29bb 5dc0 ca3e 05bf
000000f0: ab03 f6bc e43e b03f 205a 2a3f d0db 973f
00000100: f993 42bf d253 26bf 0f38 27c0 1286 bc3e
00000110: b28a a63f a33f febf 1165 4a3e 15d0 c9bf
00000120: 2aca 7bbf 0481 ab3f 1a12 bf3d fa30 17c0
00000130: e6f4 4140 7a55 79be 3cc3 00c0 0b9d 4fbf
00000140: be5e 80bd 6259 0b3f b797 4ebe c89f 8b3f
00000150: 619e 733f c300 18bf 4e21 783f 9ecd 09bf
00000160: f3e9 f8be 11f8 2bbf 6dde 6dbf 092b 5240
00000170: 34c6 f23e a5e6 31bf 18ad 8fbf ee33 45bf
00000180: cd09 7ebf fb16 bc3f 4324 9d3f 64fb 863f
00000190: 4043 47c0 6dd3 3940 43b5 133e d5b4 bf3f
000001a0: 0cbc 15bf 812f c63f 6ff5 1940 be80 383f
000001b0: 676a cdbd 3399 8abd 53c9 a9bf fa06 b6be
000001c0: 7a61 c23f 5645 95be 706b 8ebf afc9 163f
000001d0: 0334 81be 33db 2640 289e 9c40 783a c1be
000001e0: 2e9d 963f 4ba8 c03f aaa2 ae3f 2634 cebe
000001f0: 8ed9 973e 9046 c6bf bb51 4ac0 f52b 0f40
00000200: c053 16bf 9001 84be 14eb 9cc0 0add e4be
00000210: 12d2 923f a47a 3c3e 4c28 803f 6d9d c13e
00000220: a6e6 02c0 b2e7 663f 065d 773f 3ac4 d93e
00000230: 434e 093f c886 423f 21ab 05be d870 43bf
00000240: ad30 3d40 8246 923f 273f c03f 821f 093e
00000250: b382 2cbf b593 7fbf 7565 57bf 6af6 0a40
00000260: 85c4 45c0 7ad2 61bf 99d9 ac3f d26a 053e
00000270: d1fe 7e3f 2a88 153f bf8d d33f 9994 e7be
00000280: 47f5 943f 510d 0cc0 2afb f9be 9d06 12bf
00000290: ccab f73e 874d 2b3f 6c14 943f 9938 74bf
000002a0: 9fb6 0dc0 20aa e2bd d20b 993f f33b 753f
000002b0: 6c20 993f dd94 b3bd 6979 9abf f6ae 0240
000002c0: f833 93bf a59b 8cbf 8abe b4bf cb94 c63f
000002d0: 0a8c 2040 da72 c4bf 9d0a ddbf 53b9 b5bf
000002e0: 446e a13e 6fff a93f 94f8 063f 42b9 e6bf
000002f0: 008f d83e de31 dbbf 2e71 acbe 8da5 85be
00000300: c836 30c0 4737 3dbe ad75 eebd 8b0a 5b3f
00000310: 12ab 3cbf dee9 4b3f 2f86 41be c552 02c0
00000320: f5f0 473f e94d 45bf ff75 fb3f 8050 8e3e
00000330: dc5e 37c0 d88f 8d3f 53fd aebf 7642 9ebf
00000340: e97c d3bf 3cd2 a5bf b913 113f ac95 88bf
00000350: 38e8 63c0 1c29 8cbe e4f3 bebf a658 f23e
00000360: c79a 0640 6968 bfbf 810c 3440 ce19 0540
00000370: e385 d73f 2964 d6bf a9f3 dd3d 303d b2bf
00000380: a356 cb3f eedf 1e3f ad15 823f 8f5c c1bf
00000390: 8ae8 803f 18a8 1ec0 c968 9abf c452 d83f
000003a0: a772 db3e 4245 34bf 671d 133f cfbb ed3d
000003b0: e902 c83f 192f 06bf 7032 cb3f b21b 9240
000003c0: 4da8 9bbd fb58 9a3e f24e 153f 64c1 a23f
000003d0: 0b97 9bbf b162 17bf 05ff 4e3e ffa9 40be
000003e0: e610 92bf bf49 1e40 7598 ff3f c76d f5be
000003f0: 830f 863f b91d 1d40 c18b 1b3f 4a7d e0bd

weight f4 [1683, 8]
0.34010708 -2.1008184 -0.5182331 -0.31589037 -1.8805146 -1.4268687 -1.3215338 -1.0321127
-0.47908947 1.4997425 2.146426 1.502649 -0.671179 -1.9981762 -1.2204334 -1.1177019
2.4436693 3.2704875 1.7282132 -1.2684299 1.2604191 1.7774954 3.2953522 -0.8708443
1.2232636 4.4183693 2.438995 -0.9698891 0.47614738 1.8039463 -2.1108828 1.851273
0.77230054 0.40577167 3.2595215 1.0352993 0.09578677 -2.0534084 -1.0968791 -1.5523964
-1.8842864 -0.36334226 0.22857137 2.0837862 -0.4274522 -2.1530561 0.6851563 2.101738
-1.9593018 -0.40372387 -0.04270513 0.6429322 1.3298737 0.4609198 0.32409137 -0.15633334
-2.3294492 0.6540466 -1.5461712 -3.1041358 2.06088 1.9883398 0.27662456 -1.8960068
-0.5541013 -2.1271925 0.7291463 -0.31070507 -0.09707829 1.3303673 2.6551316 3.4740582
-2.0059936 2.523536 0.96310115 -1.8125962 -3.08364 -0.48230362 -2.9092982 0.64445794
4.200426 1.9704143 -1.0170529 -1.2219226 0.28966734 -0.7489152 2.064828 3.1637387
2.859259 0.4648266 1.5164553 -1.3362012 -1.3457005 -0.13294728 1.9411892 -0.53928655
0.62782615 0.687968 -1.3570484 -1.5368257 1.252068 -0.84369636 -0.31017074 0.7132722
0.5519622 -0.43547085 -1.3480376 -2.8735597 0.19466938 -0.16348237 0.9696367 0.16109745
1.4342765 0.7446464 0.4704674 0.82282114 4.555159 0.75312275 1.999624 0.06442019
1.1201966 -2.7781968 0.43442407 -0.7783696 -0.9183126 2.6132765 1.5191113 0.43570378
0.08206403 1.6733112 1.751163 -1.4642963 -1.8635293 -0.28767297 -1.1508198 -0.63564616
1.0198668 -1.0739894 -1.7575623 -2.1638896 -2.1730065 2.277894 0.68592805 2.8274243
2.4456809 -0.61091924 -2.3658402 1.9844639 0.71141547 2.0309534 -0.82967156 -2.0876129
-1.9054493 2.2386339 -0.8759256 0.8781002 -0.84161067 1.0090742 0.4564228 -0.7308424
-0.17109852 -0.07774567 1.8496673 -2.387509 1.2190423 2.8949676 0.9874038 -1.390935
-0.6211597 2.3325589 -0.73152345 -0.1542739 -0.14711949 0.88296944 -0.16440903 1.4231976
1.9238161 1.3240293 0.34202102 -1.3858813 1.8173128 -2.8528166 -1.1127133 1.9342073
4.6413317 -3.3935375 -3.397157 0.33151174 1.8318328 1.4338888 0.086061865 0.44306028
-0.49183783 -3.4517791 -2.4147482 -4.1127057 -0.098592 0.33785316 1.816089 -0.15759853
1.5204288 -0.20421869 -3.5557735 0.05998979 0.8915337 1.1839651 0.051073153 2.2253387
-1.0030061 -3.409919 -0.32744718 -4.9919896 1.3658627 0.681952 1.6558055 -1.8754197
-0.7186933 -1.8726587 -0.3306568 -2.9919753 2.3993042 1.354413 0.018971484 -1.649386
-0.5241596 1.0637109 -1.8452839 -2.1882577 -1.5753309 0.5207836 -2.3923173 -0.24011204
1.3480966 -2.055792 -0.42043713 2.42319 1.4259377 -1.1968175 -0.06130232 -0.4442481
3.6704004 -1.0851043 0.14550371 0.8314116 -2.2041163 -2.9082549 1.167715 0.6785285
0.6893216 1.9732251 -0.5110563 1.3235189 0.42501023 -1.2350689 -1.7365589 -0.21315779
00000000: 8422 ae3e cf73 06c0 edaa 04bf 62bc a1be
00000010: b4b4 f0bf a2a3 b6bf 0528 a9bf 451c 84bf
00000020: 374b f5be 90f7 bf3f 0b5f 0940 cd56 c03f
00000030: 63d2 2bbf 3dc4 ffbf 2937 9cbf db10 8fbf
00000040: 1465 1c40 ab4f 5140 1736 dd3f e95b a2bf
00000050: 6a55 a13f f884 e33f 0de7 5240 a7ef 5ebf
00000060: e793 9c3f 4863 8d40 7e18 1c40 a74a 78bf
00000070: 97c9 f33e b6e7 e63f b418 07c0 83f6 ec3f
00000080: 7db5 453f 4ec1 cf3e 009c 5040 b084 843f
00000090: db2b c43d 0b6b 03c0 8966 8cbf edb4 c6bf
000000a0: 4c30 f1bf ff07 babe 9d0e 6a3e c15c 0540
000000b0: 04db dabe accb 09c0 6766 2f3f e082 0640
000000c0: 67ca fabf e5b4 cebe 93eb 2ebd 3497 243f
000000d0: 4d39 aa3f aefd eb3e 4eef a53e d915 20be
000000e0: b215 15c0 996f 273f f0e8 c5bf 29aa 46c0
000000f0: 75e5 0340 eb81 fe3f bca1 8d3e 5ab0 f2bf
00000100: 95d9 0dbf ec23 08c0 55a9 3a3f bc14 9fbe
00000110: fcd0 c6bd 7a49 aa3f aded 2940 f856 5e40
00000120: 3362 00c0 9d81 2140 cc8d 763f 2703 e8bf
00000130: 5c5a 45c0 80f0 f6be f131 3ac0 32fb 243f
00000140: e469 8640 8936 fc3f ca2e 82bf f667 9cbf
00000150: 474f 943e e8b8 3fbf 2426 0440 b27a 4a40
00000160: 19fe 3640 c1fd ed3e 351b c23f a408 abbf
00000170: ea3f acbf 5523 08be e378 f83f af0e 0abf
00000180: 37b9 203f ac1e 303f c3b3 adbf b4b6 c4bf
00000190: c443 a03f 7cfc 57bf b3ce 9ebe 0299 363f
000001a0: 654d 0d3f 09f6 debe 7f8c acbf 67e8 37c0
000001b0: 6957 473e ec67 27be 1c3a 783f bbf6 243e
000001c0: 5f96 b73f 25a1 3e3f 1ae1 f03e 68a4 523f
000001d0: ddc3 9140 a7cc 403f aef3 ff3f bcee 833d
000001e0: 9a62 8f3f facd 31c0 d56c de3e 3b43 47bf
000001f0: 8916 6bbf ec3f 2740 3d72 c23f 9114 df3e
00000200: 3011 a83d 102f d63f 1c26 e03f 106e bbbf
00000210: 2188 eebf df49 93be 104e 93bf b5b9 22bf
00000220: ff8a 823f 7c78 89bf cdf7 e0bf 2b7d 0ac0
00000230: 8a12 0bc0 04c9 1140 fb98 2f3f 85f4 3440
00000240: 0986 1c40 3465 1cbf ed69 17c0 ea02 fe3f
00000250: 531f 363f 24fb 0140 5b65 54bf 739b 05c0
00000260: c3e5 f3bf c745 0f40 a93c 60bf 2dcb 603f
00000270: cc73 57bf 5829 813f 40b0 e93e 7d18 3bbf
00000280: 7334 2fbe 1f39 9fbd e6c1 ec3f f3cc 18c0
00000290: 9409 9c3f 2647 3940 7fc6 7c3f 280a b2bf
000002a0: 5204 1fbf a548 1540 1f45 3bbf faf9 1dbe
000002b0: 7ea6 16be 490a 623f d75a 28be 572b b63f
000002c0: 9b3f f63f cb79 a93f 611d af3e 8f64 b1bf
000002d0: b59d e83f 8c94 36c0 646d 8ebf 1b94 f73f
000002e0: ca85 9440 b82f 59c0 056b 59c0 e8bb a93e
000002f0: 7f79 ea3f ab89 b73f 3441 b03d ccd8 e23e
00000300: 2bd2 fbbe f3e9 5cc0 3c8b 1ac0 499b 83c0
00000310: 9aea c9bd 17fb ac3e 9b75 e83f 8261 21be
00000320: 699d c23f b41e 51be cb91 63c0 dbb7 753d
00000330: 8d3b 643f 2b8c 973f 1532 513d f36b 0e40
00000340: 8162 80bf 1d3c 5ac0 28a7 a7be 61be 9fc0
00000350: 97d4 ae3f 6894 2e3f 6ff1 d33f c10d f0bf
00000360: 49fc 37bf 48b3 efbf d94b a9be 867c 3fc0
00000370: 338e 1940 685d ad3f 166a 9b3c 151f d3bf
00000380: 532f 06bf ae27 883f 4332 ecbf 6a0c 0cc0
00000390: 71a4 c9bf 1352 053f ba1b 19c0 eedf 75be
000003a0: 6e8e ac3f 1992 03c0 8943 d7be 8c15 1b40
000003b0: 2085 b63f 5131 99bf 2418 7bbd 7d74 e3be
000003c0: d7e7 6a40 b3e4 8abf edfe 143e 64d7 543f
000003d0: 3e10 0dc0 d920 3ac0 af77 953f 0bb4 2d3f
000003e0: 6177 303f a492 fc3f 96d4 02bf 1169 a93f
000003f0: f19a d93e bd16 9ebf 9047 debf 0946 5abe

weight f4 [8, 8]
-1.025335 2.106001 0.8606643 1.1117036 1.3017075 -1.1167169 1.1198335 0.95711005
0.53104025 0.23980753 -0.34472796 -0.3178247 -0.61310214 0.48884174 -0.6020279 -0.556096
-0.056895714 -0.0750775 0.09790375 0.040218342 -0.024645803 0.045983125 -0.10690867 0.010937939
0.068411246 -0.0018988573 -0.0817623 0.12963732 -0.0106346635 -0.018249853 0.012569063 0.04107344
0.5753933 -0.84051836 -0.8380903 -0.6326812 -0.83151585 0.88364923 -0.86763173 -0.55356586
-0.77929497 -1.5042709 1.049677 0.6681478 1.1590931 -1.148114 0.9887516 0.6051764
-0.05687903 0.027758358 -0.32002667 0.4975653 -0.004234453 -0.14975144 -0.057509217 -0.065838695
1.5278804 0.5120837 -1.412713 -1.2577077 -2.0947027 1.6372958 -1.5419395 -0.9769242
00000000: 2d3e 83bf b8c8 0640 7f54 5c3f 4e4c 8e3f
00000010: 5a9e a63f 94f0 8ebf b456 8f3f 2a05 753f
00000020: 41f2 073f 1b90 753e 2f80 b0be ebb9 a2be
00000030: 43f4 1cbf 7749 fa3e 801e 1abf 4f5c 0ebf
00000040: 7b0b 69bd 3bc2 99bd c381 c83d fdbb 243d
00000050: ffe5 c9bc cd58 3c3d eff2 dabd 0b35 333c
00000060: 321b 8c3d 14e3 f8ba fe72 a7bd a5bf 043e
00000070: 033d 2ebc b780 95bc 79ee 4d3c a03c 283d
00000080: fa4c 133f 362c 57bf 168d 56bf 65f7 21bf
00000090: 39de 54bf d636 623f 1d1d 5ebf 7eb6 0dbf
000000a0: e07f 47bf f38b c0bf d15b 863f bc0b 2b3f
000000b0: 2a5d 943f 66f5 92bf d31e 7d3f d7ec 1a3f
000000c0: fcf9 68bd 7f65 e33c 89da a3be e1c0 fe3e
000000d0: 2bc1 8abb 7158 19be c98e 6bbd 70d6 86bd
000000e0: 9691 c33f eb17 033f c8d3 b4bf 91fc a0bf
000000f0: 9c0f 06c0 e992 d13f 465e c5bf b417 7abf

bias f4 [8]
0.47391388 -0.59411824 0.25560758 -0.038651776 0.009722176 -0.73615456 0.099558376 0.2789109
00000000: d7a4 f23e 2218 18bf ffde 823e 5351 1ebd
00000010: c349 1f3c a074 3cbf 43e5 cb3d 69cd 8e3e

weight f4 [944, 64]
0.06884156 -0.40149212 -2.4091382 -2.0197642 4.195229 -0.6045768 0.6207588 -0.24860302
5.3939004 0.2837818 -1.5237939 -3.054522 0.6647675 3.7444944 5.4190288 -0.5543701
-0.6048938 -0.0844406 1.0235299 -2.5811167 -3.0209854 -3.334276 -0.3132524 0.33447444
0.41012034 5.72409 0.6285705 1.0368624 -0.40662202 3.6674106 1.3274353 1.2143879
1.575709 -4.11453 -1.8823692 1.8877203 1.7235531 -0.0771032 2.838805 2.1463017
-3.2025425 -1.3526428 -2.2296073 0.062021703 -2.2123175 -2.13201 -0.14415811 3.1711383
0.84450096 -0.6593926 -1.2836552 0.034488406 -0.06693753 1.9276457 0.021705316 0.8952958
-0.677218 0.73328733 -2.957467 -0.25424442 -2.998527 1.2449493 0.88960725 1.9534587
0.46184337 1.871134 0.14208494 1.1969384 0.66772795 1.6479475 0.45136073 0.9138693
-0.42624357 0.9393582 -1.4863759 -0.94876957 -2.1091602 -2.0129156 0.25659725 -1.695107
-1.2085135 -2.1590157 0.029240327 -0.45200565 -1.5152289 0.035138223 -2.3629627 1.3737024
-1.0398507 1.2779593 -0.609692 1.8617843 -0.100580744 0.54632986 -0.8019124 1.0787075
1.709527 -2.647991 4.340136 -0.8118022 0.3094548 -0.2929831 -1.391508 -2.820068
-0.50751096 -0.67787725 -0.5316708 -0.68199384 0.3102873 0.7121397 -0.78692716 -0.90763134
0.10416355 1.1436819 3.9579773 -1.574021 2.5714874 0.6800635 -0.719553 0.57353175
-1.0333698 -0.021888953 -2.6230361 -0.63702613 -1.9928328 0.54958004 -0.46344277 1.5153993
0.30634472 -0.58907497 0.54432136 -0.79955953 -2.2587504 -1.2114769 1.518935 -1.0034847
1.2277623 -1.2997293 0.5404635 0.5840823 1.5118241 0.16333911 2.2657464 -0.6406682
0.50166154 1.4728087 2.21852 0.24578626 -1.6791449 2.092585 -0.30934185 0.6960561
2.2563953 0.1540409 -0.5786452 -0.10216312 -0.41040748 -2.7977972 1.3701694 0.67968047
0.2614643 -0.22779256 0.67607546 0.1537999 -1.7780555 -0.37304133 1.269678 -0.7811455
0.299543 -3.4818318 -1.2267607 1.3144977 2.1896205 0.9796587 -1.1769496 1.5021627
0.8637399 0.4966808 4.675793 -0.3592644 3.0772295 -0.7511465 2.706346 0.5964336
-0.69455063 0.894748 -0.86303335 -0.1849873 0.6159412 -2.415486 0.21124642 -0.6951672
3.1298375 0.17707148 -0.46451166 -0.7607399 -0.65629613 -0.53801954 1.0696287 -0.12611696
-0.39876372 -2.434545 0.6382131 0.36469495 0.39958262 -0.5649428 -0.7079761 0.042098664
0.2503864 -0.9150405 1.3802078 1.160882 -0.36441258 1.2743157 -1.0299387 0.13357101
-0.27434993 0.72072816 -0.77062464 0.5282965 -1.6082664 1.2378991 0.32169244 -2.0416965
0.057136454 -1.8921485 3.5340378 -0.54432887 0.18738343 -0.4465281 -2.1007266 -1.5653306
-2.0837328 -0.3426913 -1.3948771 2.9711027 1.3151879 -3.225677 0.6676658 -2.035818
-0.72462976 -1.802682 3.0615213 0.89857596 -2.4693818 -0.6579994 -2.0550816 -0.36897662
-0.12934244 -0.41525194 -0.50490946 -1.0957552 0.7102662 -2.5633378 1.1871117 2.4323697
00000000: cefc 8c3d 6090 cdbe 522f 1ac0 d143 01c0
00000010: 513f 8640 8cc5 1abf 0cea 1e3f ca91 7ebe
00000020: d59a ac40 d94b 913e ae0b c3bf 4a7d 43c0
00000030: 342e 2a3f cca5 6f40 af68 ad40 33eb 0dbf
00000040: 52da 1abf 31ef acbd 0703 833f 0431 25c0
00000050: d357 41c0 c764 55c0 9e62 a0be 3c40 ab3e
00000060: 4bfb d13e bf2b b740 ffe9 203f e8b7 843f
00000070: c330 d0be dbb6 6a40 66e9 a93f 1071 9b3f
00000080: d5b0 c93f 3baa 83c0 79f1 f0bf d2a0 f13f
00000090: 639d dc3f 48e8 9dbd fbae 3540 025d 0940
000000a0: 75f6 4cc0 6623 adbf e3b1 0ec0 780a 7e3d
000000b0: 9c96 0dc0 da72 08c0 2f9e 13be eef3 4a40
000000c0: 3731 583f f4cd 28bf d04e a4bf b743 0d3d
000000d0: 8b16 89bd 18bd f63f 59cf b13c 1b32 653f
000000e0: 295e 2dbf b8b8 3b3f 2447 3dc0 532c 82be
000000f0: dee7 3fc0 805a 9f3f 4dbd 633f ef0a fa3f
00000100: bc76 ec3e 5281 ef3f b77e 113e 4735 993f
00000110: 38f0 2a3f f2ef d23f c118 e73e 57f3 693f
00000120: 993c dabe c779 703f 9141 bebf 90e2 72bf
00000130: 7bfc 06c0 9cd3 00c0 b760 833e 44f9 d8bf
00000140: 92b0 9abf 502d 0ac0 6989 ef3c 496d e7be
00000150: 05f3 c1bf 19ed 0f3d c83a 17c0 7bd5 af3f
00000160: d419 85bf 2c94 a33f c614 1cbf f34e ee3f
00000170: 47fd cdbd 46dc 0b3f 224a 4dbf 1613 8a3f
00000180: c8d1 da3f af78 29c0 65e2 8a40 45d2 4fbf
00000190: dc70 9e3e e201 96be ef1c b2bf fe7b 34c0
000001a0: 3dec 01bf 5d89 2dbf 941b 08bf 2697 2ebf
000001b0: fadd 9e3e ca4e 363f 0f74 49bf 875a 68bf
000001c0: b353 d53d 2b64 923f 804f 7d40 8579 c9bf
000001d0: 4093 2440 a418 2e3f a034 38bf fad2 123f
000001e0: 7645 84bf 7650 b3bc d3df 27c0 2514 23bf
000001f0: 2515 ffbf 47b1 0c3f 5f48 edbe 9bf8 c13f
00000200: 37d9 9c3e 9ecd 16bf a558 0b3f efaf 4cbf
00000210: 5e8f 10c0 ad11 9bbf 766c c23f 3072 80bf
00000220: 5127 9d3f 885d a6bf d15b 0a3f 6b86 153f
00000230: 7483 c13f 5e42 273e fd01 1140 d502 24bf
00000240: e46c 003f ff84 bc3f 3bfc 0d40 65af 7b3e
00000250: 38ee d6bf eaec 0540 0e62 9ebe bc30 323f
00000260: c868 1040 e6bc 1d3e 1822 14bf e63a d1bd
00000270: ee20 d2be 1c0f 33c0 b661 af3f 8aff 2d3f
00000280: a6de 853e 7442 69be 4813 2d3f b97d 1d3e
00000290: 5397 e3bf 46ff bebe cf84 a23f 27f9 47bf
000002a0: b35d 993e 55d6 5ec0 7f06 9dbf 7641 a83f
000002b0: be22 0c40 eaca 7a3f 49a6 96bf de46 c03f
000002c0: 0f1e 5d3f f24c fe3e 19a0 9540 81f1 b7be
000002d0: 54f1 4440 234b 40bf c634 2d40 dfaf 183f
000002e0: 12ce 31bf 340e 653f c1ef 5cbf 506d 3dbe
000002f0: 53ae 1d3f 5397 1ac0 fb50 583e 7af6 31bf
00000300: 424f 4840 3a52 353e 79d4 edbe dabf 42bf
00000310: 0603 28bf a6bb 09bf 98e9 883f ce24 01be
00000320: c22a ccbe 96cf 1bc0 ef61 233f 4cb9 ba3e
00000330: 1896 cc3e 17a0 10bf ec3d 35bf a66f 2c3d
00000340: a532 803e 1840 6abf a6aa b03f c897 943f
00000350: 4994 babe c71c a33f 08d5 83bf d7c6 083e
00000360: 9877 8cbe a481 383f a847 45bf 703e 073f
00000370: acdb cdbf 7a73 9e3f dfb4 a43e 28ab 02c0
00000380: ea07 6a3d ec31 f2bf ad2d 6240 2359 0bbf
00000390: 71e1 3f3e 559f e4be 4e72 06c0 c15c c8bf
000003a0: e15b 05c0 3c75 afbe 558b b2bf 8c26 3e40
000003b0: 1458 a83f 7e71 4ec0 25ec 2a3f d84a 02c0
000003c0: 5681 39bf 49be e6bf f7ef 4340 1309 663f
000003d0: 5a0a 1ec0 a672 28bf 7586 03c0 81ea bcbe
000003e0: 5872 04be e79b d4be bf41 01bf b541 8cbf
000003f0: 01d4 353f ba0d 24c0 47f3 973f f2ab 1b40

weight f4 [1683, 64]
-1.5013065 -1.1238536 1.3085296 -1.3285214 2.9107115 -0.19278893 -2.2271535 -2.1528711
-1.8587271 -1.3899626 0.7577432 -1.5342922 1.0306811 -1.7602926 1.3621573 -1.0091939
-1.7443031 -4.0530005 0.6762592 -2.3196933 0.31568342 -0.0043234266 2.0012531 -1.6200007
2.25527 1.401592 1.5755595 1.2157032 0.04093189 4.1992393 -1.3983357 1.7842726
1.6860684 -2.3779333 -1.8020238 0.08996491 -0.8209231 -0.35927477 -0.023327168 1.7976446
2.8061059 -1.1740572 0.9609552 0.9283071 1.2516936 0.7103256 -0.8042152 -2.0843174
-0.96444726 -0.9192187 -1.4950799 3.7657773 -1.2037752 0.99877685 0.18945174 -0.5853096
0.52816415 -1.3595366 0.5323618 -0.8333382 -0.16333923 2.3610091 -2.6444197 0.38618326
-0.9496981 0.94431967 0.35560384 1.2679973 1.2618371 -0.7273704 0.54008317 -4.039792
-0.87637645 -1.3147377 1.7929075 -5.3035893 2.5675428 -3.6018643 -0.1896804 -0.19488314
1.8539938 1.6097791 1.8458436 -2.6921217 -2.4471614 0.24222434 4.1822095 -0.88257444
-1.5486245 -0.75420064 1.215203 -0.10595459 0.3277849 1.6771038 -1.6397054 -0.13708843
-1.2866255 1.6402526 -2.5006142 0.6318631 -1.1567025 -0.3134618 -1.2132736 4.4339514
5.5843716 -3.0915196 1.1543201 2.2857995 -0.33228686 -0.9825425 0.890376 -2.2049756
-1.0363568 -0.65785027 -2.3847542 3.2644773 0.9940849 0.024306925 -0.4626292 1.3856753
2.9406674 -1.4488066 -0.39007145 -0.37435234 0.13481574 0.3380977 -1.7593709 -1.6275734
-0.27037844 -2.2798758 2.2068877 -1.951385 -0.0012518307 -1.9821633 -4.139882 0.23548599
0.2285233 2.9482508 -1.9191507 2.902949 -3.8612452 -0.6136589 1.4150138 0.46633154
-3.9333212 -1.4169174 -4.602825 1.6680157 1.2016095 -1.806526 0.5237893 3.0716016
2.3089943 -0.12349212 2.251788 -3.5503316 1.1693909 -3.9297156 -3.2566304 -0.69142884
-2.437994 1.9350652 -2.8873706 -2.1471312 -2.2296548 0.18055138 1.7728837 -3.0107603
-1.7648916 3.613472 -1.1234833 -0.9922629 -0.12777089 1.0119679 2.3865418 -0.91050446
-1.211402 2.0880523 1.9489717 -2.436438 -1.8282101 0.30848315 1.9030206 -0.7635135
-1.7841353 1.8995146 -2.0864105 -1.1690259 -0.47145042 2.256041 0.62061936 1.0355769
-1.1834923 1.5266327 0.0632019 1.2287661 -3.8332357 -0.23259525 0.89794064 -0.4892547
2.7362652 0.57993823 -1.4000776 1.6470686 2.1458106 0.19069041 0.10195092 0.92567575
-0.4796306 0.5650662 0.9990097 -0.2102654 1.8628621 -2.637304 -3.7014868 -0.7100856
-0.46649948 -1.6717833 -0.68765295 1.0829328 2.6358807 0.6548933 1.4490186 -0.8140945
1.35945 0.20392919 1.4781005 1.5013682 2.9659946 3.4673464 -2.6883326 1.7081075
-1.1833609 -0.5106359 0.9961197 -0.4122403 -1.9793004 -0.28898656 1.2946705 0.75664866
2.9464207 0.1542065 0.96097785 -3.0245645 0.33909145 0.19661726 -1.2102715 0.5330286
0.1173651 -0.93891484 0.9840849 -1.8399096 -0.8246886 -0.111314654 1.6313703 -1.6907611
00000000: d02a c0bf 6fda 8fbf e67d a73f fd0c aabf
00000010: 1949 3a40 766a 45be af89 0ec0 a4c8 09c0
00000020: c5ea edbf 4bea b1bf 75fb 413f b063 c4bf
00000030: 5ced 833f 4551 e1bf 2c5b ae3f 442d 81bf
00000040: 5345 dfbf 2eb2 81c0 531f 2d3f db75 14c0
00000050: 42a1 a13e 88ab 8dbb 8814 0040 2f5c cfbf
00000060: 5856 1040 5e67 b33f efab c93f 2a9c 9b3f
00000070: 33a8 273d 2b60 8640 aafc b2bf 0b63 e43f
00000080: 17d1 d73f 0f30 18c0 b7a8 e6bf 863f b83d
00000090: 0428 52bf ddf2 b7be 9e18 bfbc 3819 e63f
000000a0: 3d97 3340 8247 96bf 2901 763f 89a5 6d3f
000000b0: 7f37 a03f e6d7 353f 0ce1 4dbf 7565 05c0
000000c0: 04e6 76bf eb51 6bbf c75e bfbf 7f02 7140
000000d0: 4e15 9abf d7af 7f3f a3ff 413e dad6 15bf
000000e0: c435 073f 4c05 aebf dd48 083f a755 55bf
000000f0: 6642 27be c61a 1740 2c3e 29c0 d0b9 c53e
00000100: 6a1f 73bf efbe 713f b511 b63e bc4d a23f
00000110: e183 a13f f234 3abf e442 0a3f fa45 81c0
00000120: 355a 60bf 5349 a8bf fe7d e53f 01b7 a9c0
00000130: 9f52 2440 f284 66c0 943b 42be 728f 47be
00000140: ab4f ed3f 3e0d ce3f 9a44 ec3f b94b 2cc0
00000150: 4b9e 1cc0 a809 783e a9d4 8540 66f0 61bf
00000160: 5439 c6bf 4b13 41bf c68b 9b3f b8fe d8bd
00000170: 6cd3 a73e 56ab d63f dee1 d1bf e960 0cbe
00000180: 25b0 a4bf ccf3 d13f 100a 20c0 c8c1 213f
00000190: d40e 94bf 117e a0be 8d4c 9bbf eee2 8d40
000001a0: 2cb3 b240 75db 45c0 c3c0 933f 8a4a 1240
000001b0: 8121 aabe e887 7bbf aeef 633f 521e 0dc0
000001c0: 57a7 84bf e068 28bf d09f 18c0 32ed 5040
000001d0: 597c 7e3f 511f c73c bcdd ecbe cf5d b13f
000001e0: e533 3c40 7f72 b9bf 72b7 c7be 1cab bfbe
000001f0: 230d 0a3e 241b ad3e 1133 e1bf 5354 d0bf
00000200: 0b6f 8abe 7ce9 11c0 a63d 0d40 fcc6 f9bf
00000210: 7814 a4ba 87b7 fdbf ea79 84c0 3d23 713e
00000220: 0302 6a3e 24b0 3c40 bba6 f5bf ebc9 3940
00000230: a41e 77c0 c018 1dbf 2c1f b53f 02c3 ee3e
00000240: 89bb 7bc0 8d5d b5bf 584a 93c0 8a81 d53f
00000250: 57ce 993f 3e3c e7bf 0e17 063f 1f95 4440
00000260: 90c6 1340 70e9 fcbd 4b1d 1040 a238 63c0
00000270: 9aae 953f 7680 7bc0 a26c 50c0 7b01 31bf
00000280: 1808 1cc0 37b0 f73f aeca 38c0 996a 09c0
00000290: aab2 0ec0 76e2 383e daed e23f 4cb0 40c0
000002a0: f8e7 e1bf 2043 6740 4dce 8fbf f104 7ebf
000002b0: 5fd6 02be 2a88 813f 1abd 1840 d216 69bf
000002c0: 390f 9bbf a6a2 0540 e877 f93f 9aee 1bc0
000002d0: ca02 eabf 81f1 9d3e 2e96 f33f 9f75 43bf
000002e0: 8c5e e4bf 4b23 f33f c087 05c0 a4a2 95bf
000002f0: f361 f1be fa62 1040 e9e0 1e3f c98d 843f
00000300: ad7c 97bf b368 c33f ff6f 813d 3548 9d3f
00000310: bc53 75c0 732d 6ebe 70df 653f 987f fabe
00000320: f81e 2f40 d576 143f be35 b3bf 25d3 d23f
00000330: f654 0940 5944 433e a5cb d03d 16f9 6c3f
00000340: 2492 f5be 2ea8 103f 1abf 7f3f d04f 57be
00000350: 4472 ee3f 97c9 28c0 29e5 6cc0 2bc8 35bf
00000360: 05d9 eebe fffc d5bf 060a 30bf 8b9d 8a3f
00000370: 45b2 2840 16a7 273f 7179 b93f 7f68 50bf
00000380: 7502 ae3f d0d2 503e 6632 bd3f d52c c03f
00000390: dbd2 3d40 01e9 5d40 a40d 2cc0 44a3 da3f
000003a0: 5f78 97bf 09b9 02bf b301 7f3f 2911 d3be
000003b0: b759 fdbf 0cf6 93be c3b7 a53f bab3 413f
000003c0: 2892 3c40 4fe8 1d3e a502 763f 7792 41c0
000003d0: 659d ad3e 0956 493e 2dea 9abf 9074 083f
000003e0: 1d5d f03d b95c 70bf fdec 7b3f 2882 ebbf
000003f0: cb1e 53bf f0f8 e3bd bed0 d03f dc6a d8bf

weight f4 [64, 128]
0.65765446 0.70176035 -0.34754807 0.04059346 0.5106391 1.5366105 -0.094610855 -0.34885526
-1.100496 -1.3688325 -0.35029194 -0.5181098 0.8926008 -1.3849608 -0.24093477 -0.62166667
-0.7271751 0.034845497 1.1527526 -2.3965533 1.4333543 -1.0322633 -1.0766108 0.049494505
0.025884332 1.4431176 -0.02991538 -0.8771046 -1.253436 -1.1653485 0.20604242 2.3519819
-2.6299307 1.3124392 1.4350008 -1.7293245 -0.58965087 -2.1366816 -0.60828376 1.0997747
1.1301988 0.42376822 0.58693105 -2.078099 0.6233813 -0.04292912 -1.3881639 2.0082412
-0.076923124 -0.9383638 -0.17434965 -1.7728655 -1.2217984 0.36044523 -2.351413 -0.14660011
0.5024063 0.8734027 0.9048646 1.7669632 1.7712723 0.8387658 0.7238336 0.8383533
0.3714875 0.68347096 2.4482923 0.29686993 0.48406455 -0.8314646 -1.6430379 -1.4870365
-0.38021383 3.0299358 -0.79505855 1.3545939 -2.2836533 1.2023267 -0.5018349 0.19861372
1.7592384 0.6694961 0.772975 -0.9378988 -1.7019067 2.2218063 0.28662878 1.35266
-0.18473531 -0.15851292 -2.2213695 0.8385086 -0.5438521 -0.78659487 -0.8861072 1.429456
0.14596549 0.36017272 1.3428524 -2.9360726 1.0266346 0.81586474 0.4459 -0.94368845
0.3270518 -0.8030928 -1.1936246 0.033779774 -0.8767005 0.8200522 1.0343143 1.2542644
-0.6130432 0.20877469 -0.49976894 1.2096658 -2.0879898 -0.5876814 0.24689038 0.9168823
0.7463288 2.0314505 -0.15079618 -0.7376803 -2.5113811 0.38832086 -0.20456678 -1.5844847
-1.4338728 -1.1479998 0.21553059 0.6762466 -0.6185336 0.6033164 1.4904705 0.38965717
0.25808468 2.0587816 0.11270723 0.9829931 0.058416713 0.7254413 0.30392185 -0.87511873
0.091946445 -0.2633326 -0.33258134 1.041543 0.3283187 -0.5566967 -1.1015235 0.20619473
-0.92633235 1.9659013 -1.7802073 -0.11546587 -0.5935775 0.29551888 -1.075642 0.3959957
-0.8876353 -0.14938605 -1.1412365 0.053321667 -0.22947039 -0.6904075 0.81254834 -0.25700548
0.020489449 -0.28484848 -0.82632613 -0.573571 0.024878753 0.57601094 0.24989721 0.3775439
1.333177 0.60277903 0.82844025 1.6290871 -0.1951839 -2.2635255 -0.063249245 0.8210854
-0.73472565 -1.1315144 0.8088674 1.2071933 1.2377412 0.08503024 0.8491009 0.27850902
0.6362461 1.2826893 2.5891914 -1.0521333 -1.0102916 -1.903701 0.17268924 -0.05989826
0.51477295 0.7072715 0.45884278 -1.4076774 -0.68859607 1.6255858 -1.4878235 1.0003941
1.3771206 -1.0402006 -0.21751381 0.16736259 -0.24534173 0.060929514 -1.1158174 1.0266899
1.2856299 0.99204767 -0.92962044 0.7668117 -1.4374338 -2.302459 0.53537273 0.49600592
-0.87562424 -1.0923741 1.3258092 -1.027543 0.09742288 0.15701497 1.3961327 0.13153335
-0.3719149 0.14346686 -1.835656 0.17787686 -1.1675739 0.61503524 -0.9403133 1.1812129
-1.9021844 0.7002003 0.3376352 -0.8795605 -1.2876369 -0.083947934 -0.03257843 1.9864612
1.1873436 1.3022954 1.2589332 -1.110321 -0.81285346 0.31879464 1.3606653 -1.6791718
00000000: 0b5c 283f 91a6 333f d2f1 b1be 5445 263d
00000010: 3eb9 023f a7af c43f 56c3 c1bd 289d b2be
00000020: 0edd 8cbf e735 afbf 7759 b3be d8a2 04bf
00000030: 7c81 643f 6546 b1bf 9bb7 76be 8c25 1fbf
00000040: 2628 3abf 27ba 0e3d 668d 933f 2161 19c0
00000050: 2778 b73f 3421 84bf 62ce 89bf c0ba 4a3d
00000060: 610b d43c 14b8 b83f 1911 f5bc ed89 60bf
00000070: 9770 a0bf 242a 95bf c9fc 523e df86 1640
00000080: c950 28c0 02fe a73f 1bae b73f 815a ddbf
00000090: 5cf3 16bf 64bf 08c0 7cb8 1bbf 6bc5 8c3f
000000a0: 5baa 903f 26f8 d83e 1d41 163f 93ff 04c0
000000b0: eb95 1f3f 72d6 2fbd 5baf b1bf 0687 0040
000000c0: df89 9dbd 9c38 70bf b788 32be 42ed e2bf
000000d0: e463 9cbf 478c b83e 8d7d 16c0 571e 16be
000000e0: b39d 003f 5297 5f3f 35a5 673f da2b e23f
000000f0: 0db9 e23f 5bb9 563f 294d 393f 529e 563f
00000100: 9c33 be3e f4f7 2e3f d2b0 1c40 56ff 973e
00000110: 4fd7 f73e ddda 54bf 114f d2bf 3657 bebf
00000120: 63ab c2be 78ea 4140 f588 4bbf 5563 ad3f
00000130: 6027 12c0 d7e5 993f 4178 00bf 6561 4b3e
00000140: b92e e13f 1964 2b3f b1e1 453f 231a 70bf
00000150: 14d8 d9bf 1332 0e40 02c1 923e f623 ad3f
00000160: 412b 3dbe 3651 22be eb2a 0ec0 80a8 563f
00000170: e439 0bbf 485e 49bf ecd7 62bf 6af8 b63f
00000180: fa77 153e 8f68 b83e 96e2 ab3f 9de8 3bc0
00000190: c368 833f 83dc 503f 014d e43e 9195 71bf
000001a0: 5573 a73e 7d97 4dbf b1c8 98bf a95c 0a3d
000001b0: 726f 60bf f1ee 513f 6964 843f bc8b a03f
000001c0: 66f0 1cbf 08c9 553e b7e1 ffbe 54d6 9a3f
000001d0: a0a1 05c0 4a72 16bf d5d0 7c3e ccb8 6a3f
000001e0: 670f 3f3f 4903 0240 506a 1abe 9ed8 3cbf
000001f0: 78ba 20c0 fed1 c63e f479 51be 65d0 cabf
00000200: 2589 b7bf a8f1 92bf 0db4 5c3e 7f1e 2d3f
00000210: 3858 1ebf f272 1a3f bdc7 be3f 2581 c73e
00000220: ad23 843e 14c3 0340 0cd3 e63d 70a5 7b3f
00000230: 5d46 6f3d 85b6 393f a59b 9b3e c807 60bf
00000240: 6b4e bc3d 88d3 86be 1a48 aabe 4851 853f
00000250: 6319 a83e ad83 0ebf b9fe 8cbf b624 533e
00000260: 1e24 6dbf a7a2 fb3f d5dd e3bf 5f79 ecbd
00000270: b2f4 17bf 404e 973e a3ae 89bf f3bf ca3e
00000280: 113c 63bf a8f8 18be 0a14 92bf d267 5a3d
00000290: 49fa 6abe 8cbe 30bf 2b03 503f 3996 83be
000002a0: 7dd9 a73c a9d7 91be 1c8a 53bf 8dd5 12bf
000002b0: 87ce cb3c 7475 133f 0ee5 7f3e 6f4d c13e
000002c0: 8ba5 aa3f ba4f 1a3f a914 543f ed85 d03f
000002d0: 4ade 47be 9add 10c0 d288 81bd a732 523f
000002e0: fb16 3cbf 77d5 90bf ef11 4f3f 4f85 9a3f
000002f0: 4e6e 9e3f 5624 ae3d ad5e 593f bc98 8e3e
00000300: 06e1 223f 2a2f a43f 50b5 2540 4eac 86bf
00000310: 3c51 81bf 79ac f3bf 73d5 303e e157 75bd
00000320: 29c8 033f bf0f 353f 71ed ea3e c62e b4bf
00000330: d547 30bf 3213 d03f 0071 bebf ea0c 803f
00000340: 7d45 b03f 4b25 85bf f1bb 5ebe 1961 2b3e
00000350: dd3a 7bbe 3a91 793d 1bd3 8ebf 936a 833f
00000360: 858f a43f d6f6 7d3f 9bfb 6dbf c64d 443f
00000370: d5fd b7bf 7d5b 13c0 300e 093f 7df4 fd3e
00000380: e928 60bf ead2 8bbf 1eb4 a93f 8786 83bf
00000390: a685 c73d 88c8 203e 7ab4 b23f aeb0 063e
000003a0: a16b bebe fae8 123e c7f6 eabf 5a25 363e
000003b0: 1073 95bf f372 1d3f 5fb8 70bf fc31 973f
000003c0: c77a f3bf 5440 333f 85de ac3e e02a 61bf
000003d0: 49d1 a4bf e5ec abbd f670 05bd 5c44 fe3f
000003e0: e0fa 973f 9eb1 a63f b924 a13f 001f 8ebf
000003f0: 2a17 50bf 0d39 a33e 482a ae3f 1aef d6bf

bias f4 [64]
-3.3299394 -3.1512592 -4.256256 -3.6752906 -3.3712187 -4.636183 -3.4503713 -4.3141804
-2.269071 -2.6827443 -3.6446524 -3.5475688 -2.1473515 -3.1047664 -0.7436635 -4.111286
-2.931168 -1.7339888 -1.4912176 -2.5874207 -0.8500999 -2.311175 -1.8199683 -1.6917796
-2.2922013 -2.5308995 -3.2579443 -0.1519178 -2.6713 -1.8243943 -2.7754467 -2.319606
-1.9034575 -3.8401558 0.87704486 -1.9121517 -1.389452 -2.1408336 -3.3060687 -1.8476355
-3.6700714 -2.560282 -3.4353564 -5.998295 -3.222084 -5.266254 -0.1378619 -4.9168906
-2.8074055 -1.831641 -3.128456 -2.456022 -2.3486185 -1.8084708 -3.7999616 -2.2632022
-2.12609 -1.7722397 -2.0963063 -2.5217087 -1.5412129 -2.763557 -1.9931896 -3.9826605
00000000: ba1d 55c0 3bae 49c0 4033 88c0 f637 6bc0
00000010: 0cc2 57c0 9c5b 94c0 e2d2 5cc0 c40d 8ac0
00000020: 7638 11c0 15b2 2bc0 fc41 69c0 5e0b 63c0
00000030: 356e 09c0 7eb4 46c0 bb60 3ebf a88f 83c0
00000040: 4298 3bc0 58f3 ddbf 38e0 bebf 4d98 25c0
00000050: 26a0 59bf 4bea 13c0 b9f4 e8bf 3c8c d8bf
00000060: 6db3 12c0 42fa 21c0 2982 50c0 5790 1bbe
00000070: 94f6 2ac0 c185 e9bf eba0 31c0 6d74 14c0
00000080: 7fa4 f3bf 1dc5 75c0 0386 603f 63c1 f4bf
00000090: 90d9 b1bf 6b03 09c0 a196 53c0 527f ecbf
000000a0: 73e2 6ac0 a9db 23c0 e1dc 5bc0 08f2 bfc0
000000b0: a036 4ec0 2785 a8c0 ab2b 0dbe 2b57 9dc0
000000c0: 88ac 33c0 3673 eabf a038 48c0 772f 1dc0
000000d0: c44f 16c0 f97b e7bf 9232 73c0 4ed8 10c0
000000e0: dc11 08c0 c0d8 e2bf e229 06c0 ad63 21c0
000000f0: 7746 c5bf 1ede 30c0 d620 ffbf e9e3 7ec0

weight f4 [32, 64]
-0.24954064 -0.1785994 -0.15607044 -0.28614387 -0.06290797 -0.3778471 0.036528632 -0.14044677
-0.6525731 -0.15645154 -0.29897785 -0.30074376 -0.5740385 -0.2658234 -0.061969932 -0.17168646
-0.26852888 -0.2428904 -0.30739668 0.0115446085 -0.34241638 0.1039887 0.019415136 0.04430019
-0.50240463 0.09540356 -0.6430429 -0.5197545 -0.1819075 -0.404396 -0.3129452 -0.3752527
-0.50475454 -0.305976 -0.3330371 -0.73892486 -0.73008895 -0.11975564 -0.14861329 -0.25111398
-0.5491206 -0.600801 -0.043815892 -0.120728925 -0.31536818 -0.35157144 -0.13777965 0.028855965
-0.475542 -0.036360938 -0.18613742 -0.12110339 -0.22489738 -0.11012675 -0.22626044 -0.0144649185
-0.36852244 -0.1602899 -0.2961547 -0.21387261 -0.3887025 -0.6777462 0.051431045 0.051314324
0.65632606 -1.0787984 -0.04748954 0.28665048 -0.8104905 -0.1106829 -0.9680085 0.38723034
0.7737596 -0.60167795 1.0640445 0.44506702 -0.2574512 0.8449747 0.41256768 -1.9499352
1.1136278 -0.7963783 0.115736276 0.414787 -1.1139096 -0.6769657 -0.49965197 0.6713398
-0.70942026 -0.08487504 -0.31741133 0.1566676 0.70846087 -0.801808 0.14122127 0.16495311
-0.75687915 -0.35736766 -1.8639432 0.47765654 0.14593212 -0.35135457 0.45090222 0.31077382
0.540297 0.83094645 -0.6772395 1.8240663 0.42631966 0.4316706 -0.20405138 1.116217
1.2276268 -0.19007972 0.6981273 -0.47357878 -0.5816541 -0.012085526 1.1857979 0.58581614
-0.7200201 -0.062137645 0.2952646 0.18912014 -0.6858688 0.41095597 -0.2657666 0.019657217
-0.15238027 -0.03901939 -0.011447951 -0.18859515 -0.01140651 0.037390303 -0.106525965 -0.05599081
-0.1047646 -0.16985142 -0.17429976 -0.2228096 -0.045019045 -0.11739194 -0.19702983 -0.11173432
-0.07719675 -0.104092255 -0.17544408 -0.0999248 -0.027647816 -0.03521801 -0.07606671 0.050625674
-0.27886182 0.010256316 -0.06905094 -0.042217214 0.015099709 -0.248916 -0.054555606 -0.16764043
-0.17019643 -0.0026517236 -0.11045333 -0.152571 -0.053976882 -0.13737863 -0.0989762 -0.10351387
-0.011443332 -0.064288795 -0.070611194 -0.1575123 -0.02495525 -0.024643658 -0.18872702 -0.0029339304
-0.16903688 -0.1661202 -0.11003275 -0.19479087 -0.15864675 -0.06959252 -0.012099524 -0.15581468
-0.040617995 -0.21457168 -0.17886908 -0.146492 -0.051498897 -0.05463297 -0.163149 -0.10952262
-0.012882167 -1.4488435 0.51417506 -1.4340692 -2.5134718 -1.236417 0.010497537 -0.49408495
0.95964354 -0.6695034 0.6968773 -1.2127919 -1.197827 -0.39673868 -0.31944945 -0.58198047
1.0477576 -0.3168823 0.7182798 -1.08809 -2.8630252 -1.1875871 -0.12562634 0.9289321
-1.2685246 -0.2741361 -0.4999645 -1.1228038 0.34338683 -1.3280742 -1.3904619 -1.5341805
0.07147543 0.07373128 -1.5094005 -1.1656883 -0.6122457 -0.26614234 -0.35399565 -0.65277475
-2.2041898 -0.7041212 -1.6119926 0.76332605 0.23449136 -0.46937445 -1.9518656 0.73566294
-0.79643434 -1.9919038 -0.027741214 -0.053089794 -0.15993237 -0.47496572 0.08698294 -1.5141239
-0.14118002 0.2456952 0.26633322 -1.4423505 0.28878403 0.26426333 0.28519434 -1.2808985
00000000: 9587 7fbe c3e2 36be eed0 1fbe 7381 92be
00000010: e5d5 80bd 2d75 c1be 0c9f 153d 47d1 0fbe
00000020: 080f 27bf d534 20be a013 99be 16fb 99be
00000030: 30f4 12bf 011a 88be 2fd4 7dbd 93ce 2fbe
00000040: 9e7c 89be 43b8 78be 1963 9dbe 9925 3d3c
00000050: 3351 afbe 07f8 d43d 7e0c 9f3c 1e74 353d
00000060: 979d 00bf f162 c33d 769e 24bf a20e 05bf
00000070: f645 3abe fe0c cfbe 5a3a a0be 1f21 c0be
00000080: 9837 01bf e3a8 9cbe d783 aabe 2e2a 3dbf
00000090: 1ce7 3abf 7242 f5bd 152e 18be 0392 80be
000000a0: 2b93 0cbf 18ce 19bf 4b78 33bd ba40 f7bd
000000b0: f077 a1be 2c01 b4be 1c16 0dbe 5863 ec3c
000000c0: 3e7a f3be 35ef 14bd cf9a 3ebe 0e05 f8bd
000000d0: 804b 66be 228a e1bd d1b0 67be 44fe 6cbc
000000e0: f9ae bcbe 0923 24be 97a1 97be 6c01 5bbe
000000f0: 0404 c7be c680 2dbf 5ca9 523d f82e 523d
00000100: fc04 283f 1116 8abf 6484 42bd dac3 923e
00000110: 4e7c 4fbf b7ad e2bd 68cf 77bf 0e43 c63e
00000120: 1c15 463f 9107 1abf 9c32 883f d3df e33e
00000130: a5d0 83be 4350 583f 123c d33e 7a97 f9bf
00000140: 5b8b 8e3f 73df 4bbf 2407 ed3d f65e d43e
00000150: 9794 8ebf a04d 2dbf 62d2 ffbe eddc 2b3f
00000160: 919c 35bf f7d2 adbd bd83 a2be 796d 203e
00000170: b15d 353f 4a43 4dbf 4f9c 103e 78e9 283e
00000180: d5c2 41bf e5f8 b6be b195 eebf 668f f43e
00000190: 3b6f 153e bfe4 b3be a8dc e63e bf1d 9f3e
000001a0: e750 0a3f e8b8 543f 915f 2dbf 017b e93f
000001b0: 9246 da3e ee03 dd3e d8f2 50be 33e0 8e3f
000001c0: e022 9d3f 42a4 42be 79b8 323f eb78 f2be
000001d0: 48e7 14bf 5f02 46bc 3ac8 973f 0cf8 153f
000001e0: 3d53 38bf 0b84 7ebd ec2c 973e b6a8 413e
000001f0: 1995 2fbf d268 d23e 8f12 88be 2c08 a13c
00000200: 9309 1cbe ccd2 1fbd 3090 3bbc 161f 41be
00000210: 5fe2 3abc 9326 193d 492a dabd 9f56 65bd
00000220: d38e d6bd 88ed 2dbe a37b 32be 3328 64be
00000230: e465 38bd 2f6b f0bd 30c2 49be f7d4 e4bd
00000240: 5419 9ebd 522e d5bd 9da7 33be 60a5 ccbd
00000250: ac7d e2bc c340 10bd ddc8 9bbd de5c 4f3d
00000260: fac6 8ebe 1b0a 283c 946a 8dbd f5eb 2cbd
00000270: c564 773c d6e3 7ebe b375 5fbd efa9 2bbe
00000280: f947 2ebe 8ac8 2dbb 5b35 e2bd 923b 1cbe
00000290: dd16 5dbd fcac 0cbe 09b4 cabd 14ff d3bd
000002a0: d07c 3bbc d8a9 83bd 9a9c 90bd e84a 21be
000002b0: f46e ccbc 7fe1 c9bc a841 41be 2f47 40bb
000002c0: 0118 2dbe 6a1b 2abe da58 e1bd 4277 47be
000002d0: 4b74 22be 8686 8ebd 153d 46bc e28d 1fbe
000002e0: 0e5f 26bd aeb8 5bbe 7529 37be 0002 16be
000002f0: 82f0 52bd d2c6 5fbd 8810 27be 654d e0bd
00000300: b90f 53bc b473 b9bf faa0 033f 948f b7bf
00000310: b9dc 20c0 ea42 9ebf ddfd 2b3c b4f8 fcbe
00000320: 33ab 753f 9364 2bbf 8d66 323f c43c 9bbf
00000330: 6552 99bf 5521 cbbe e18e a3be acfc 14bf
00000340: ec1c 863f 663e a2be 2fe1 373f 8846 8bbf
00000350: ce3b 37c0 db02 98bf 31a4 00be 7ece 6d3f
00000360: 045f a2bf 915b 8cbe 59fb ffbe 09b8 8fbf
00000370: 66d0 af3e 56fe a9bf a8fa b1bf 0760 c4bf
00000380: b661 923d 6d00 973d 0934 c1bf 4635 95bf
00000390: 22bc 1cbf cf43 88be eb3e b5be 3f1c 27bf
000003a0: 7211 0dc0 4941 34bf c655 cebf 5669 433f
000003b0: 811e 703e d951 f0be bbd6 f9bf 6854 3c3f
000003c0: 1fe3 4bbf b4f6 febf 8b41 e3bc af74 59bd
000003d0: 50c5 23be b52e f3be 1d24 b23d d0ce c1bf
000003e0: 7f91 10be 8697 7b3e d45c 883e f19e b8bf
000003f0: 80db 933e 864d 873e fe04 923e 7bf4 a3bf

bias f4 [32]
-0.6135559 -0.025589984 -0.16910374 -1.654198 -0.1595508 0.22079365 -0.62883806 -0.2060637
-0.52126426 -1.6285443 -0.16520102 -0.081700206 -1.3809655 -0.2977502 -1.1444058 -0.41676092
-0.08363065 -1.0723795 -0.53497267 -0.019871816 -0.12355568 -0.25400108 0.9420707 -0.20413832
-0.20418498 -0.39168623 0.44120392 -0.21902213 -0.8959613 0.16833179 -0.27423668 -0.18449438
00000000: 0012 1dbf 16a2 d1bc 8829 2dbe c3bc d3bf
00000010: 4961 23be bb17 623e 88fb 20bf 5d02 53be
00000020: 9371 05bf 2474 d0bf 752a 29be 7052 a7bd
00000030: 7ac3 b0bf b772 98be e47b 92bf b061 d5be
00000040: 8c46 abbd bb43 89bf f8f3 08bf 38ca a2bc
00000050: c30a fdbd 6e0c 82be 8c2b 713f a309 51be
00000060: de15 51be 198b c8be 7be5 e13e 5647 60be
00000070: b85d 65bf 2b5f 2c3e c068 8cbe 18ec 3cbe

weight f4 [16, 32]
-0.101491675 -0.26080623 0.10834497 -0.25595307 0.18719575 -0.22589885 0.012458318 0.07898283
-0.036159337 -0.35747588 -0.17593607 -0.053968046 -0.11597776 -0.3863144 -0.067810774 -0.27886137
-0.018770838 -0.062124114 -0.26081192 -0.11914634 -0.0035376975 0.07621019 -0.11585181 -0.008772341
0.047262836 -0.13367002 -0.29781243 0.09697652 -0.15094607 -0.30674744 -0.26350537 -0.114181
-0.054831844 0.052274548 0.025894962 0.077099174 -0.24601412 0.37492973 0.1633788 -0.08469482
0.20499647 0.999199 0.019702973 -0.053325742 1.3903216 0.09766824 1.0757449 0.6309039
0.0853448 -0.47585064 0.4993359 0.092162006 -0.3260521 0.27960613 -0.6230514 -0.14324878
-0.31231698 0.43811125 -0.407473 -0.048594482 0.17657836 0.47057575 0.063245244 -0.22181968
-0.118803 -0.35862067 -0.089382835 -0.6008688 -0.05815828 -0.7113036 -0.30576307 -0.021016462
0.029943654 -0.4464098 -0.04034213 0.08626407 -1.9560591 0.52501595 -0.46227932 -0.7749538
0.039317712 -1.1652339 -0.8737006 -0.06888737 -0.07095898 -0.29331583 -1.2601625 0.074904606
-0.022745831 -0.9230408 -1.0911831 -0.53404135 0.1189927 -0.5696469 -0.5276361 -0.8517555
-0.082663834 -0.07742645 -0.101964116 -0.019837594 0.13395481 -0.051650662 -0.06874955 -0.14726561
-0.005783728 -0.21215446 -0.08880224 0.048028134 -0.28082392 0.1367564 -0.09103645 -0.048562355
-0.057654195 -0.2634112 -0.2964005 -0.018095076 -0.1041633 0.083538644 -0.8835252 0.04048867
0.156358 -0.57046705 -0.6002537 -0.03832676 -0.37356535 -0.19219081 -0.09966311 -0.1094386
-0.012160725 -0.42861852 -0.11059271 -0.25325465 0.1130804 -0.31725058 0.27877805 0.0220194
-0.053678434 -1.3052335 0.10263645 -0.053300142 -0.48512742 -0.06789366 -0.14259668 -0.06308063
-0.040900424 -0.69851804 -1.5706626 -0.08719975 -0.5996853 -0.14041702 -0.7909689 0.08509108
0.07670652 -0.26240167 -0.36703593 -0.16953436 -0.24182673 -0.28413427 -0.122320205 -0.7434321
0.034517087 -0.41976023 0.23926903 -0.12818566 0.15967771 -0.18767938 -0.11148018 0.12538819
0.27776164 -0.21384946 0.2137003 0.13943852 -0.5677369 -0.2906161 -0.049407944 -0.12177033
0.16273652 -0.0597185 -0.43529952 -0.26128507 -0.37429056 0.1262149 -1.5896791 -0.16717905
0.02463552 -0.07078672 -0.076407455 -0.27501002 -0.15960945 -0.37134925 -0.39599553 -0.20048343
-0.1495262 -0.26600194 -0.010125198 -0.2857276 0.025569964 -0.014080236 -0.22789901 -0.045225527
0.19011189 0.030725459 0.19083562 0.09321317 -0.30265394 -0.20212093 0.015769994 -0.11846684
-0.08639912 -0.24102183 -0.11943728 0.013966128 -0.0592768 0.15538475 -0.58097106 0.0029278384
0.08502987 -0.12269876 -0.33898243 0.16806574 -0.31614515 -0.06949917 -0.017944999 -0.08591372
-0.08665947 -0.3052346 -0.08783689 -0.27570638 0.034401007 -0.26708582 -0.18820404 0.14833646
-0.043521475 -0.019402938 0.09529397 -0.12847167 -0.6851261 -0.08594743 0.013362927 -0.050235726
-0.08441972 -0.04887259 -0.05767449 0.022665437 -0.34254172 -0.18315573 -0.6843341 -0.3882538
-0.114752464 -0.22951432 -0.02157958 -0.01961313 -0.19205242 -0.28699827 -0.15681046 -0.061810408
00000000: deda cfbd 6588 85be f8e3 dd3d 480c 83be
00000010: 3eb0 3f3e 0752 67be f91d 4c3c c0c1 a13d
00000020: d01b 14bd 1407 b7be 9628 34be 990d 5dbd
00000030: bf85 edbd 00cb c5be 60e0 8abd ebc6 8ebe
00000040: 4dc5 99bc db75 7ebd 2489 85be ff02 f4bd
00000050: b7d8 67bb 1714 9c3d b743 edbd ddb9 0fbc
00000060: ad96 413d cbe0 08be df7a 98be a09b c63d
00000070: 9b91 1abe 000e 9dbe 2dea 86be bad7 e9bd
00000080: 5b97 60bd d61d 563d ac21 d43c 2ce6 9d3d
00000090: 20eb 7bbe caf6 bf3e c64c 273e 7a74 adbd
000000a0: 98ea 513e 81cb 7f3f 2168 a13c 186c 5abd
000000b0: 0ff6 b13f 4906 c83d 02b2 893f eb82 213f
000000c0: 41c9 ae3d b2a2 f3be f5a8 ff3e 6fbf bc3d
000000d0: 4df0 a6be 8928 8f3e 4c80 1fbf cfaf 12be
000000e0: 03e8 9fbe 1e50 e03e 4da0 d0be 020b 47bd
000000f0: f5d0 343e 4eef f03e b986 813d b324 63be
00000100: fd4e f3bd 219d b7be 590e b7bd 8ad2 19bf
00000110: 6037 6ebd fe17 36bf fa8c 9cbe b72a acbc
00000120: 654c f53c d38f e4be ca3d 25bd 37ab b03d
00000130: 2560 fabf 7267 063f e0af ecbe 5f63 46bf
00000140: 9c0b 213d 6226 95bf d8aa 5fbf d214 8dbd
00000150: f152 91bd 7e2d 96be 014d a1bf 9667 993d
00000160: 7755 babc 674c 6cbf e3ab 8bbf efb6 08bf
00000170: 72b2 f33d 61d4 11bf 2913 07bf a60c 5abf
00000180: a84b a9bd c291 9ebd 90d2 d0bd 7382 a2bc
00000190: 732b 093e a58f 53bd 90cc 8cbd cccc 16be
000001a0: 6d85 bdbb 053f 59be f3dd b5bd 26b9 443d
000001b0: 27c8 8fbe df09 0c3e 5171 babd 52e9 46bd
000001c0: ce26 6cbd d5dd 86be cec1 97be 203c 94bc
000001d0: 9153 d5bd 4f16 ab3d b52e 62bf 73d7 253d
000001e0: 501c 203e 210a 12bf 3aaa 19bf 85fc 1cbd
000001f0: f543 bfbe abcd 44be 2c1c ccbd 5821 e0bd
00000200: c73d 47bc e373 dbbe 6e7e e2bd 98aa 81be
00000210: b296 e73d ab6e a2be ffbb 8e3e 0762 b43c
00000220: ebdd 5bbd e411 a7bf 0f33 d23d 4051 5abd
00000230: 9f62 f8be d50b 8bbd dd04 12be 6b30 81bd
00000240: 3487 27bd 14d2 32bf 790b c9bf c895 b2bd
00000250: fa84 19bf 7bc9 0fbe f07c 4abf 3b44 ae3d
00000260: 4f18 9d3d 8359 86be 22ec bbbe 6a9a 2dbe
00000270: 6da1 77be 0c7a 91be 0483 fabd 9151 3ebf
00000280: ca61 0d3d d0ea d6be f102 753e 1a43 03be
00000290: 8e82 233e 062f 40be b84f e4bd c365 003e
000002a0: c636 8e3e 5afb 5abe 40d4 5a3e f9c8 0e3e
000002b0: 3557 11bf a2cb 94be fc5f 4abd b962 f9bd
000002c0: 67a4 263e 639b 74bd 94df debe 28c7 85be
000002d0: 03a3 bfbe 7b3e 013e 9b7a cbbf fc30 2bbe
000002e0: 6ed0 c93c a1f8 90bd 837b 9cbd 1dce 8cbe
000002f0: a970 23be 7d21 bebe edbf cabe 874b 4dbe
00000300: 651d 19be 6831 88be 29e4 25bc e34a 92be
00000310: 1a78 d13c cab0 66bc 5c5e 69be 673e 39bd
00000320: b1ac 423e f5b3 fb3c 6a6a 433e 8ce6 be3d
00000330: 75f5 9abe caf8 4ebe 1330 813c be9e f2bd
00000340: 06f2 b0bd 6dce 76be 889b f4bd 30d2 643c
00000350: 3bcc 72bd 2e1d 1f3e 85ba 14bf fae0 3f3b
00000360: 2424 ae3d 7d49 fbbd 1b8f adbe 6d19 2c3e
00000370: c7dd a1be 9555 8ebd 6401 93bc 88f3 afbd
00000380: 857a b1bd b647 9cbe d4e3 b3bd 6329 8dbe
00000390: 12e8 0c3d 79bf 88be 8fb8 40be 83e5 173e
000003a0: 9343 32bd e9f2 9ebc 7c29 c33d 148e 03be
000003b0: 6d64 2fbf 3505 b0bd 2ef0 5a3c fac3 4dbd
000003c0: 3fe4 acbd a02e 48bd 163c 6cbd deac b93c
000003d0: a161 afbe 2d8d 3bbe 8530 2fbf 34c9 c6be
000003e0: 5703 ebbd cd05 6bbe a9c7 b0bc b7ab a0bc
000003f0: 64a9 44be 70f1 92be ec92 20be e92c 7dbd

bias f4 [16]
-0.6682232 0.42818728 0.74266523 -0.20346786 -0.06078528 -0.09105185 -0.36017272 -0.2870364
1.5429537 -1.4695094 1.4334984 0.7106029 -0.18927707 -0.9134832 -0.3060474 -1.08992
00000000: ad10 2bbf 5d3b db3e 4f1f 3e3f e159 50be
00000010: fcf9 78bd 6479 babd 8f68 b8be 6ff6 92be
00000020: 827f c53f e218 bcbf e07c b73f 12ea 353f
00000030: d9d1 41be 09da 69bf 3fb2 9cbe 8082 8bbf
