models/GMF8.pt (torch, 86797 bytes, 3 tensors)

weight f4 [944, 8]
00000000: 1306 1bbe 0123 f03e 1e34 323f d528 453e
00000010: db3c 0740 9ce7 5e3f ffd0 edbe 5326 15be
00000020: 9c9b 6c3e 8732 5e3f f7d8 1dbf f7ef 9b3f
00000030: c5c6 3bbe 8f60 c93f 73ce debe fc17 9c3e
00000040: 4faf 38be 2a0f 893f 69f8 733f 9b00 97be
00000050: ea41 783f 605a 7b3f b9f6 be3f 6ae2 3c3f
00000060: 06fe a83f 679e 903f 6aad f83f a47e fabd
00000070: a345 983f a2c5 5c3f 0940 81be bf0b 25be
00000080: 8e8f b8bf ea6c 2dbf 3fe4 6dbf a2c8 be3f
00000090: 5dcb 9a3f 835d a63f f23d d5be a273 ce3d
000000a0: 3923 6b3e ee66 0f3f e480 c63f e917 01bf
000000b0: fc55 8d3f f419 da3e da0f 04c0 ab34 503f
000000c0: b094 6b3f becc bc3f 5b23 96bd 0082 7c3f
000000d0: 8f92 da3e f6cf 0dbf 69fa 54bf 4e75 7f3f
000000e0: b3ff 05bf 3933 9a3f d435 ae3f e0db 013f
000000f0: a99b 813f c902 66bd f97e 0dbf 3d3a 793f
00000100: e7a5 2e3f 9d3e 233f b30d a53e 773d 073f
00000110: 79cd 0340 3765 78bf a798 2bbd 11a9 343f
00000120: 8cd3 bfbd a604 fb3f 8d78 b43d 245e 71bd
00000130: b936 b93f 2b11 a5bf fe7e 1dc0 914c 0e3e
00000140: f5d4 6a3f 94d2 d83f a336 d53f 4c50 a83e
00000150: a065 943f a3d4 233e 03a2 d9bd 5cf7 b13e
00000160: 2559 863f ce99 913e 22b9 943f 7e87 473e
00000170: 0ce4 a63f 9301 773f 8a8b f13e 2113 593e
00000180: ad73 eebc 8a3f f33f 285f febe fbf1 60be
00000190: 8283 4c3f 09cb 0340 f96c a3be 94ac 2d3f
000001a0: 7617 0bbf 98d2 a03f 13c7 f73e b773 4abf
000001b0: 588b a43f 105a f63e 49e5 ccbe f9b5 5e3f
000001c0: 8798 303f 8154 64bf 07cc d1be e3d0 263f
000001d0: fb71 413f 0457 a33f 5cbf ccbf b286 a43f
000001e0: 7a44 8f3f 4a23 e63f efa5 783f 57fc 0d3f
000001f0: 0268 ce3e 63d0 c13f 0d8e 083f 843b 973f
00000200: 346f f33e 871b e8be 024b 0040 8538 96be
00000210: 23b1 d03f 8c92 75bf 03e4 01bf a0ff 233f
00000220: 4406 bc3f 3e17 af3f 7279 cbbe 1473 7bbf
00000230: d2a4 ca3f b625 a13e 0c74 50bf 8779 c73f
00000240: f30d c13f 2478 dc3f 0388 c63d ad4a e63e
00000250: aca8 c0be e47f c43f 3d6d fa3e 1600 563f
00000260: 6199 0c3f 28ce 1a3f 62e4 433f b533 c8bf
00000270: 4d2d d43f 7241 8abf ae28 0ec0 cc14 603f
00000280: ad5e a83e 9dda 2a3f 1c41 293f 1d90 ac3f
00000290: acc2 5f3f 814f 9e3f 218b d13c 13e1 6f3e
000002a0: f97b 833e a6ea 013f a606 4abe d301 61bf
000002b0: f105 c63e a3e9 58be 1d34 a3bf b226 3c3e
000002c0: 7166 5dbe dc3f 263f 5d14 f63f 8d54 e5bd
000002d0: 13a0 f83f 889a 7cbf 296a ecbe 33a5 53be
000002e0: 7ada 923f 2c43 1040 40f9 563f 06d0 21bf
000002f0: 57d7 8a3f ffc8 6abf a045 a0bf 61ee ab3f
00000300: e1cb 193f fffc 463f 5d0c fcbc ae39 50bf
00000310: 23e0 af3f 3a87 613f 965e 96be 5308 b43f
00000320: f5b1 acbd c077 423f 1fef b53c 158e 06bf
00000330: 8fe0 1fbe 9822 0240 2c44 f9be 3684 943f
00000340: 5d4b 6bbf ab57 9a3f 44f9 54bf a181 00bd
00000350: 1ab4 883f a051 c03f 32b6 353f 2bd1 da3f
00000360: d9b3 753c 2e56 0e3f 909d a93f 266f 0440
00000370: c29d 4d3f 1a1f 983e 7dec 4dbf c547 74bf
00000380: 98d1 b23f cd0d d83f 720a 9c3e 9985 7d3f
00000390: cd0f dd3e 0e12 d1be dc11 65bf abff e73e
000003a0: e25e 81bf a2dd 853f 4437 cf3f 8de9 b63f
000003b0: 113b 40be 1e41 983e 15be edbf 9338 61be
000003c0: f277 38be 9661 1940 8671 c23f 9411 9bbe
000003d0: 68de 873f 31aa dc3f 101d 053d ee6a b33f
000003e0: 3752 48bf efc4 3a3f 137f 843f 9b5e 71bf
000003f0: 332d c43f 4b4d 4abf 307d b6bf 0f47 a33c
-0.15139036 0.46901706 0.69610775 0.19253857 2.1130893 0.8707216 -0.46448514 -0.14565401
0.23106235 0.8679585 -0.6165919 1.2182606 -0.18337543 1.5732592 -0.43516883 0.3048705
-0.18035625 1.0707753 0.9530092 -0.2949265 0.96975577 0.98184776 1.4919044 0.7378298
1.3202522 1.129834 1.9427922 -0.12231186 1.1896251 0.86239064 -0.25244167 -0.16117762
-1.441881 -0.67744315 -0.929264 1.4904978 1.2093312 1.2997288 -0.41648823 0.10080649
0.22962655 0.56016433 1.5508084 -0.5042711 1.1041865 0.42597926 -2.0634675 0.81330365
0.92023754 1.4749982 -0.07330962 0.98635864 0.4268994 -0.5539545 -0.83194596 0.9978837
-0.5234329 1.2046882 1.3610177 0.5072613 1.0125629 -0.056155 -0.5527187 0.9735449
0.68221897 0.63767415 0.32237014 0.5282816 2.059416 -0.9702944 -0.041893627 0.70570475
-0.09366521 1.9610794 0.08812056 -0.05892767 1.4469825 -1.2895864 -2.460876 0.13896395
0.91731197 1.6939263 1.6657299 0.32873762 1.1593513 0.15999083 -0.106266044 0.34759033
1.0495955 0.28437656 1.1618998 0.1948528 1.3038344 0.9648678 0.47176772 0.21198703
-0.029107893 1.9003766 -0.49681973 -0.21967308 0.79888165 2.0592673 -0.31919077 0.6784146
-0.54332674 1.2564268 0.4839407 -0.79082817 1.2855024 0.48115587 -0.4001868 0.8699642
0.6898274 -0.8919144 -0.40975973 0.65162486 0.75564545 1.276093 -1.5995898 1.2853606
1.1192772 1.7979519 0.97128195 0.55463165 0.40313727 1.514172 0.5334175 1.1815038
0.4754578 -0.45333502 2.004578 -0.29339996 1.6304058 -0.9592674 -0.50738543 0.6406193
1.4689412 1.3678968 -0.39741093 -0.9822247 1.5831549 0.31474084 -0.81427073 1.5583962
1.5082382 1.7224164 0.09693911 0.44978848 -0.37628686 1.5351529 0.48911467 0.8359388
0.5492154 0.6047082 0.7652036 -1.564078 1.6576325 -1.0801222 -2.221233 0.87531734
0.32884732 0.6673983 0.66114974 1.348148 0.8740642 1.2368013 0.025579037 0.23425703
0.2568052 0.5074867 -0.19729099 -0.8789341 0.38676408 -0.21182875 -1.2750279 0.18374136
-0.2162111 0.6494119 1.9224964 -0.111977674 1.9423851 -0.98673296 -0.46174744 -0.20668487
1.1472924 2.2540998 0.83974075 -0.63208044 1.0846967 -0.91712946 -1.2521248 1.3432122
0.6007672 0.7772979 -0.030767614 -0.8133801 1.3740276 0.88096964 -0.29369038 1.406504
-0.0843238 0.75963974 0.022208748 -0.5256055 -0.15613006 2.0333614 -0.48684824 1.1602848
-0.9191187 1.2058004 -0.8319285 -0.031373624 1.0679963 1.502491 0.70981133 1.7095083
0.014996492 0.5560025 1.3251209 2.069284 0.80318844 0.2971123 -0.8043898 -0.9542201
1.3970213 1.6879212 0.3047672 0.9903198 0.43176118 -0.40834087 -0.89480376 0.45312247
-1.0107081 1.0458262 1.6188741 1.4290024 -0.18772532 0.2973718 -1.8573633 -0.21994238
-0.18014506 2.3965812 1.5190895 -0.3028685 1.0614748 1.7239438 0.03249842 1.4017007
-0.7825045 0.72956747 1.035128 -0.9428498 1.5326294 -0.7902419 -1.4256954 0.019931344

weight f4 [1683, 8]
00000000: 5116 a7bf 477f 263f 8585 1cbf 0683 553f
00000010: 5735 c63f 794d d6be 2e1c 60bf b8a4 643f
00000020: 2c74 18c0 be4f 86bf 2c86 cfbf a4e9 1840
00000030: 7b6d b53f 9d35 3dbf 7092 f0be e7c5 84bf
00000040: 2861 243f 633b b43f a4bf debd ad47 11c0
00000050: 683d 8ebf 8f1f 7c3f bc48 d63f aa22 dc3c
00000060: 2db7 b03f 7045 403f b99b 8d3d 1239 18bf
00000070: 33ae ed3e 6e26 523f 23fa 8fbc 390e 9abf
00000080: 5d5f fdbf 60b0 77bf 83c1 a8bf 88df e63f
00000090: 92ef 223f 47a9 89bf c07a 873f 5ef0 dc3b
000000a0: a15d 3c3e bf8b a2bf 9225 263f acd4 e0be
000000b0: 1a1f 503f 73fe c2bf 54f4 f2be 460c dfbf
000000c0: c469 be3e 515c 88bf b13c da3f 4f14 91be
000000d0: 7d6b 8c3f d0fe 473e dfd2 023f c179 efbf
000000e0: 2929 6a3f 9277 74bf f226 74bf 12c7 fbbf
000000f0: 200c 78be b493 833f 8db4 24bf 4c5f a1be
00000100: 0d13 7e3f 3193 84bd 4fd4 8b3e 75f9 b0bf
00000110: 7e4e d43f 8a9c 913f 8691 1e3f 2d4e 65bf
00000120: 2ca0 e53f a747 be3e fb15 e2be ab3b 0dbf
00000130: 0c3a f13f 91d8 3abf f027 9bbf a25e 0bbf
00000140: 43f1 bcbe 0e7e 0fc0 3012 4f3e d670 533f
00000150: f7b5 c93f 9e70 c13f 240f 16bf 8a3c 8d3f
00000160: f1c0 a43f e39b 3abf ab32 a73f a80f 773f
00000170: 1ad8 0e3e 3d0d f63e 3c3e eb3e 7882 a13f
00000180: a612 a93d 9e36 e4bf e3d0 ee3f c4a8 813f
00000190: 116a 0440 ac48 d43f 80e2 5fbd fb3e 3f3d
000001a0: d1e7 273f 491d 3bbf 7b0c 453f e666 98bf
000001b0: cd13 1fbe f3d3 e63e 4d8c 5f3f b290 8b3a
000001c0: 7727 833d 6610 42bf 013d 653e f7eb 76bf
000001d0: 4ac0 953e 12a9 a93f 998f 1840 9726 9fbf
000001e0: 5d60 ce3f a67c c93e 9987 b6bf 1688 c6bf
000001f0: 948d 193e 2e54 8e3f 8070 123d 22ed cb3e
00000200: 8953 af3f 2bb2 833f 1355 38be f1ca 52bf
00000210: c65d 9e3f c46c febd 508e 383e 0918 dbbe
00000220: 6a7a ce3f e8be 34bf 1234 09c0 9aaa 4f3f
00000230: c13e f03f 1067 453f 9a7f 9cbf 0e9c 993f
00000240: fa88 1b40 5c68 ae3e f4b8 d5bf 542f a0be
00000250: 7335 98bf 0988 cb3e 100c 833f 8001 1abf
00000260: 8af0 f33e ca88 073f 4543 13c0 b041 e0bf
00000270: 39a9 13be eeca e3be c85f 7c3f 09e8 ae3f
00000280: d015 e63e 2e77 dd3e 3ff7 313f 63fd 71bf
00000290: 3efa e43e f38f 233f 575c 453f b952 4bbf
000002a0: 7210 9e3e c7f7 093f 7d8a 283e 766d 62bf
000002b0: e5ab 503e 66bc 98bf 3cf4 bfbf bf13 aabd
000002c0: 7bba ad3e 352d 21c0 6732 e43f ce1a 9abe
000002d0: 494e 153e d211 2a3f 03c4 3dbe 501d 9bbf
000002e0: c153 e33f f960 8ebf c58d 573f 5b6e 773f
000002f0: 8f13 4d3f b21f 2440 674a e0be 090f 36be
00000300: 6c8a c33f 19a1 1ec0 7318 d63f 9680 5f3f
00000310: fc24 b63f 54fc e73f 87de a5bf 32f0 083d
00000320: 799b a83f 5772 58bf 71e2 3f3e 54ec ec3f
00000330: 3d06 6f3f 9f69 0940 e5d9 cb3e 128f 27bf
00000340: 578f d43e 7b67 b6bf b498 fe3f ec0f 57bf
00000350: ffd3 0b3f 9cde c93f 9d3a c2be 5b80 73bf
00000360: 4b03 ef3e bf55 003e 0c15 71bf c860 b8bf
00000370: 0922 a6be ed5d c53f b2e7 303f b6b5 dbbe
00000380: ee95 e13f 6b10 9a3f cb36 063e 06e6 263f
00000390: e222 7c3e 7e1f f6bd d627 bebf dc16 bc3e
000003a0: 7897 7e3f 530c e8bf b191 47bf 6c33 69be
000003b0: 1245 7c3f 9481 8a3e c1b0 b5be 7c99 39c0
000003c0: ebd8 b13d c545 e8be 4cce 9d3f b6e5 9e3f
000003d0: 3e0a 1a3f 9970 623e 5e17 983e f03c 293f
000003e0: 60fd 643f 561d fabf 7677 be3f 368e 0a3f
000003f0: 6868 c03f 5ba9 64be 51fd 12bf 6d1d 53c0
-1.3053685 0.6503796 -0.61141235 0.8340305 1.5485028 -0.41855982 -0.87543 0.8931384
-2.3820906 -1.0493085 -1.6212821 2.3892603 1.4174036 -0.7390993 -0.46986723 -1.0372895
0.6421075 1.4080623 -0.10876396 -2.2699997 -1.111249 0.98485655 1.6740947 0.026871998
1.3805901 0.75105953 0.06914467 -0.5946208 0.46421966 0.8208989 -0.01757533 -1.203559
-1.9794728 -0.967535 -1.3184055 1.8036966 0.63646805 -1.0754784 1.0584335 0.006742521
0.18395092 -1.2698897 0.6490108 -0.43912256 0.8129746 -1.5233902 -0.47452033 -1.742562
0.37190068 -1.0653173 1.7049772 -0.28335807 1.0970303 0.19530797 0.51103014 -1.8709031
0.91469055 -0.9549495 -0.95371926 -1.9670126 -0.24223375 1.027945 -0.64338 -0.31518018
0.9924782 -0.06473387 0.27310416 -1.3826128 1.6586454 1.1375897 0.619408 -0.8957241
1.7939506 0.3716404 -0.44157395 -0.5516917 1.884584 -0.72986704 -1.2121563 -0.54441273
-0.36902818 -2.2420688 0.20221782 0.8259405 1.5758656 1.5112493 -0.5861685 1.10341
1.2871381 -0.72894114 1.3062338 0.96508265 0.13949624 0.48056975 0.4594592 1.2617941
0.0825551 -1.7829168 1.8657497 1.0129628 2.0689738 1.6584678 -0.054659367 0.046690922
0.655881 -0.7309156 0.7697217 -1.1906402 -0.15534897 0.4508358 0.87323457 0.0010647981
0.06404012 -0.7580627 0.22386552 -0.96453804 0.29248267 1.3254721 2.3837645 -1.2433652
1.6123158 0.39352912 -1.4260131 -1.551028 0.14995414 1.111944 0.03575182 0.39829355
1.3697368 1.0288748 -0.18001203 -0.82340914 1.2372367 -0.12423089 0.18023038 -0.42791775
1.6131108 -0.706038 -2.1438031 0.8111969 1.8769151 0.77110386 -1.2226441 1.2000749
2.4302354 0.34063995 -1.6697068 -0.31286108 -1.1891311 0.39752224 1.0238056 -0.6015854
0.47644454 0.529431 -2.3009808 -1.7520046 -0.14420022 -0.4449076 0.9858365 1.3664562
0.44938517 0.4325499 0.6951789 -0.9452726 0.4472217 0.63891524 0.77094024 -0.794231
0.30871922 0.53893703 0.16459079 -0.88448274 0.20378073 -1.1932495 -1.499641 -0.083045475
0.33931336 -2.5183842 1.7827882 -0.30098575 0.14580645 0.6643344 -0.18531804 -1.211832
1.7759935 -1.1123344 0.842007 0.96652764 0.8010797 2.5644345 -0.43806764 -0.17779173
1.5276618 -2.4785826 1.6726211 0.8730558 1.4230037 1.812388 -1.2958535 0.033432193
1.3172446 -0.8454947 0.18738724 1.8509622 0.93368894 2.1470716 0.39814678 -0.6545268
0.4151561 -1.425033 1.9890351 -0.8400867 0.54620355 1.577106 -0.37935343 -0.9511773
0.466822 0.1253271 -0.9417274 -1.4404535 -0.32447842 1.5419289 0.6910354 -0.42912072
1.762388 1.203626 0.1310684 0.6519474 0.24622682 -0.120177254 -1.4855907 0.3673619
0.9944987 -1.8128761 -0.7795668 -0.22773522 0.9854289 0.27051985 -0.35486415 -2.899993
0.08683952 -0.4536573 1.2328582 1.2413852 0.6017188 0.22113265 0.29705328 0.6610861
0.8944912 -1.9540203 1.4880207 0.54123247 1.5031862 -0.22330229 -0.5741778 -3.298671

weight f4 [1, 8]
00000000: fb99 1a3f 85d7 1cbf 7701 ac3e beb1 3e3f
00000010: 7ae1 303f 459e 273f 2636 0f3f b18c 24bf
0.60391206 -0.61266357 0.33594868 0.74489963 0.6909405 0.65475875 0.55942 -0.6427718
